node {
  name: "global_step/Initializer/zeros"
  op: "Const"
  attr {
    key: "_class"
    value {
      list {
        s: "loc:@global_step"
      }
    }
  }
  attr {
    key: "_output_shapes"
    value {
      list {
        shape {
        }
      }
    }
  }
  attr {
    key: "dtype"
    value {
      type: DT_INT64
    }
  }
  attr {
    key: "value"
    value {
      tensor {
        dtype: DT_INT64
        tensor_shape {
        }
        int64_val: 0
      }
    }
  }
}
node {
  name: "global_step"
  op: "VariableV2"
  attr {
    key: "_class"
    value {
      list {
        s: "loc:@global_step"
      }
    }
  }
  attr {
    key: "_output_shapes"
    value {
      list {
        shape {
        }
      }
    }
  }
  attr {
    key: "container"
    value {
      s: ""
    }
  }
  attr {
    key: "dtype"
    value {
      type: DT_INT64
    }
  }
  attr {
    key: "shape"
    value {
      shape {
      }
    }
  }
  attr {
    key: "shared_name"
    value {
      s: ""
    }
  }
}
node {
  name: "global_step/Assign"
  op: "Assign"
  input: "global_step"
  input: "global_step/Initializer/zeros"
  attr {
    key: "T"
    value {
      type: DT_INT64
    }
  }
  attr {
    key: "_class"
    value {
      list {
        s: "loc:@global_step"
      }
    }
  }
  attr {
    key: "_output_shapes"
    value {
      list {
        shape {
        }
      }
    }
  }
  attr {
    key: "use_locking"
    value {
      b: true
    }
  }
  attr {
    key: "validate_shape"
    value {
      b: true
    }
  }
}
node {
  name: "global_step/read"
  op: "Identity"
  input: "global_step"
  attr {
    key: "T"
    value {
      type: DT_INT64
    }
  }
  attr {
    key: "_class"
    value {
      list {
        s: "loc:@global_step"
      }
    }
  }
  attr {
    key: "_output_shapes"
    value {
      list {
        shape {
        }
      }
    }
  }
}
node {
  name: "IsVariableInitialized"
  op: "IsVariableInitialized"
  input: "global_step"
  attr {
    key: "_class"
    value {
      list {
        s: "loc:@global_step"
      }
    }
  }
  attr {
    key: "_output_shapes"
    value {
      list {
        shape {
        }
      }
    }
  }
  attr {
    key: "dtype"
    value {
      type: DT_INT64
    }
  }
}
node {
  name: "cond/Switch"
  op: "Switch"
  input: "IsVariableInitialized"
  input: "IsVariableInitialized"
  attr {
    key: "T"
    value {
      type: DT_BOOL
    }
  }
  attr {
    key: "_output_shapes"
    value {
      list {
        shape {
        }
        shape {
        }
      }
    }
  }
}
node {
  name: "cond/switch_t"
  op: "Identity"
  input: "cond/Switch:1"
  attr {
    key: "T"
    value {
      type: DT_BOOL
    }
  }
  attr {
    key: "_output_shapes"
    value {
      list {
        shape {
        }
      }
    }
  }
}
node {
  name: "cond/switch_f"
  op: "Identity"
  input: "cond/Switch"
  attr {
    key: "T"
    value {
      type: DT_BOOL
    }
  }
  attr {
    key: "_output_shapes"
    value {
      list {
        shape {
        }
      }
    }
  }
}
node {
  name: "cond/pred_id"
  op: "Identity"
  input: "IsVariableInitialized"
  attr {
    key: "T"
    value {
      type: DT_BOOL
    }
  }
  attr {
    key: "_output_shapes"
    value {
      list {
        shape {
        }
      }
    }
  }
}
node {
  name: "cond/read/Switch"
  op: "RefSwitch"
  input: "global_step"
  input: "cond/pred_id"
  attr {
    key: "T"
    value {
      type: DT_INT64
    }
  }
  attr {
    key: "_class"
    value {
      list {
        s: "loc:@global_step"
      }
    }
  }
  attr {
    key: "_output_shapes"
    value {
      list {
        shape {
        }
        shape {
        }
      }
    }
  }
}
node {
  name: "cond/read"
  op: "Identity"
  input: "cond/read/Switch:1"
  attr {
    key: "T"
    value {
      type: DT_INT64
    }
  }
  attr {
    key: "_output_shapes"
    value {
      list {
        shape {
        }
      }
    }
  }
}
node {
  name: "cond/Switch_1"
  op: "Switch"
  input: "global_step/Initializer/zeros"
  input: "cond/pred_id"
  attr {
    key: "T"
    value {
      type: DT_INT64
    }
  }
  attr {
    key: "_class"
    value {
      list {
        s: "loc:@global_step"
      }
    }
  }
  attr {
    key: "_output_shapes"
    value {
      list {
        shape {
        }
        shape {
        }
      }
    }
  }
}
node {
  name: "cond/Merge"
  op: "Merge"
  input: "cond/Switch_1"
  input: "cond/read"
  attr {
    key: "N"
    value {
      i: 2
    }
  }
  attr {
    key: "T"
    value {
      type: DT_INT64
    }
  }
  attr {
    key: "_output_shapes"
    value {
      list {
        shape {
        }
        shape {
        }
      }
    }
  }
}
node {
  name: "add/y"
  op: "Const"
  attr {
    key: "_output_shapes"
    value {
      list {
        shape {
        }
      }
    }
  }
  attr {
    key: "dtype"
    value {
      type: DT_INT64
    }
  }
  attr {
    key: "value"
    value {
      tensor {
        dtype: DT_INT64
        tensor_shape {
        }
        int64_val: 0
      }
    }
  }
}
node {
  name: "add"
  op: "Add"
  input: "cond/Merge"
  input: "add/y"
  attr {
    key: "T"
    value {
      type: DT_INT64
    }
  }
  attr {
    key: "_output_shapes"
    value {
      list {
        shape {
        }
      }
    }
  }
}
node {
  name: "tensors/component_0"
  op: "Const"
  device: "/device:CPU:0"
  attr {
    key: "_output_shapes"
    value {
      list {
        shape {
        }
      }
    }
  }
  attr {
    key: "dtype"
    value {
      type: DT_INT32
    }
  }
  attr {
    key: "value"
    value {
      tensor {
        dtype: DT_INT32
        tensor_shape {
        }
        int_val: 0
      }
    }
  }
}
node {
  name: "count"
  op: "Const"
  device: "/device:CPU:0"
  attr {
    key: "_output_shapes"
    value {
      list {
        shape {
        }
      }
    }
  }
  attr {
    key: "dtype"
    value {
      type: DT_INT64
    }
  }
  attr {
    key: "value"
    value {
      tensor {
        dtype: DT_INT64
        tensor_shape {
        }
        int64_val: -1
      }
    }
  }
}
node {
  name: "OneShotIterator"
  op: "OneShotIterator"
  device: "/device:CPU:0"
  attr {
    key: "_output_shapes"
    value {
      list {
        shape {
        }
      }
    }
  }
  attr {
    key: "container"
    value {
      s: ""
    }
  }
  attr {
    key: "dataset_factory"
    value {
      func {
        name: "_make_dataset_366e0563"
      }
    }
  }
  attr {
    key: "output_shapes"
    value {
      list {
        shape {
          dim {
            size: -1
          }
          dim {
            size: 1920
          }
        }
        shape {
          unknown_rank: true
        }
      }
    }
  }
  attr {
    key: "output_types"
    value {
      list {
        type: DT_FLOAT
        type: DT_FLOAT
      }
    }
  }
  attr {
    key: "shared_name"
    value {
      s: ""
    }
  }
}
node {
  name: "IteratorGetNext"
  op: "IteratorGetNext"
  input: "OneShotIterator"
  device: "/device:CPU:0"
  attr {
    key: "_output_shapes"
    value {
      list {
        shape {
          dim {
            size: -1
          }
          dim {
            size: 1920
          }
        }
        shape {
          unknown_rank: true
        }
      }
    }
  }
  attr {
    key: "output_shapes"
    value {
      list {
        shape {
          dim {
            size: -1
          }
          dim {
            size: 1920
          }
        }
        shape {
          unknown_rank: true
        }
      }
    }
  }
  attr {
    key: "output_types"
    value {
      list {
        type: DT_FLOAT
        type: DT_FLOAT
      }
    }
  }
}
node {
  name: "ExpandDims/dim"
  op: "Const"
  device: "/device:CPU:0"
  attr {
    key: "_output_shapes"
    value {
      list {
        shape {
        }
      }
    }
  }
  attr {
    key: "dtype"
    value {
      type: DT_INT32
    }
  }
  attr {
    key: "value"
    value {
      tensor {
        dtype: DT_INT32
        tensor_shape {
        }
        int_val: 1
      }
    }
  }
}
node {
  name: "ExpandDims"
  op: "ExpandDims"
  input: "IteratorGetNext:1"
  input: "ExpandDims/dim"
  device: "/device:CPU:0"
  attr {
    key: "T"
    value {
      type: DT_FLOAT
    }
  }
  attr {
    key: "Tdim"
    value {
      type: DT_INT32
    }
  }
  attr {
    key: "_output_shapes"
    value {
      list {
        shape {
          unknown_rank: true
        }
      }
    }
  }
}
node {
  name: "linear/linear_model/x/Shape"
  op: "Shape"
  input: "IteratorGetNext"
  input: "^add"
  attr {
    key: "T"
    value {
      type: DT_FLOAT
    }
  }
  attr {
    key: "_output_shapes"
    value {
      list {
        shape {
          dim {
            size: 2
          }
        }
      }
    }
  }
  attr {
    key: "out_type"
    value {
      type: DT_INT32
    }
  }
}
node {
  name: "linear/linear_model/x/strided_slice/stack"
  op: "Const"
  input: "^add"
  attr {
    key: "_output_shapes"
    value {
      list {
        shape {
          dim {
            size: 1
          }
        }
      }
    }
  }
  attr {
    key: "dtype"
    value {
      type: DT_INT32
    }
  }
  attr {
    key: "value"
    value {
      tensor {
        dtype: DT_INT32
        tensor_shape {
          dim {
            size: 1
          }
        }
        int_val: 0
      }
    }
  }
}
node {
  name: "linear/linear_model/x/strided_slice/stack_1"
  op: "Const"
  input: "^add"
  attr {
    key: "_output_shapes"
    value {
      list {
        shape {
          dim {
            size: 1
          }
        }
      }
    }
  }
  attr {
    key: "dtype"
    value {
      type: DT_INT32
    }
  }
  attr {
    key: "value"
    value {
      tensor {
        dtype: DT_INT32
        tensor_shape {
          dim {
            size: 1
          }
        }
        int_val: 1
      }
    }
  }
}
node {
  name: "linear/linear_model/x/strided_slice/stack_2"
  op: "Const"
  input: "^add"
  attr {
    key: "_output_shapes"
    value {
      list {
        shape {
          dim {
            size: 1
          }
        }
      }
    }
  }
  attr {
    key: "dtype"
    value {
      type: DT_INT32
    }
  }
  attr {
    key: "value"
    value {
      tensor {
        dtype: DT_INT32
        tensor_shape {
          dim {
            size: 1
          }
        }
        int_val: 1
      }
    }
  }
}
node {
  name: "linear/linear_model/x/strided_slice"
  op: "StridedSlice"
  input: "linear/linear_model/x/Shape"
  input: "linear/linear_model/x/strided_slice/stack"
  input: "linear/linear_model/x/strided_slice/stack_1"
  input: "linear/linear_model/x/strided_slice/stack_2"
  attr {
    key: "Index"
    value {
      type: DT_INT32
    }
  }
  attr {
    key: "T"
    value {
      type: DT_INT32
    }
  }
  attr {
    key: "_output_shapes"
    value {
      list {
        shape {
        }
      }
    }
  }
  attr {
    key: "begin_mask"
    value {
      i: 0
    }
  }
  attr {
    key: "ellipsis_mask"
    value {
      i: 0
    }
  }
  attr {
    key: "end_mask"
    value {
      i: 0
    }
  }
  attr {
    key: "new_axis_mask"
    value {
      i: 0
    }
  }
  attr {
    key: "shrink_axis_mask"
    value {
      i: 1
    }
  }
}
node {
  name: "linear/linear_model/x/Reshape/shape/1"
  op: "Const"
  input: "^add"
  attr {
    key: "_output_shapes"
    value {
      list {
        shape {
        }
      }
    }
  }
  attr {
    key: "dtype"
    value {
      type: DT_INT32
    }
  }
  attr {
    key: "value"
    value {
      tensor {
        dtype: DT_INT32
        tensor_shape {
        }
        int_val: 1920
      }
    }
  }
}
node {
  name: "linear/linear_model/x/Reshape/shape"
  op: "Pack"
  input: "linear/linear_model/x/strided_slice"
  input: "linear/linear_model/x/Reshape/shape/1"
  attr {
    key: "N"
    value {
      i: 2
    }
  }
  attr {
    key: "T"
    value {
      type: DT_INT32
    }
  }
  attr {
    key: "_output_shapes"
    value {
      list {
        shape {
          dim {
            size: 2
          }
        }
      }
    }
  }
  attr {
    key: "axis"
    value {
      i: 0
    }
  }
}
node {
  name: "linear/linear_model/x/Reshape"
  op: "Reshape"
  input: "IteratorGetNext"
  input: "linear/linear_model/x/Reshape/shape"
  attr {
    key: "T"
    value {
      type: DT_FLOAT
    }
  }
  attr {
    key: "Tshape"
    value {
      type: DT_INT32
    }
  }
  attr {
    key: "_output_shapes"
    value {
      list {
        shape {
          dim {
            size: -1
          }
          dim {
            size: 1920
          }
        }
      }
    }
  }
}
node {
  name: "linear/linear_model/x/weights/part_0/Initializer/zeros"
  op: "Const"
  attr {
    key: "_class"
    value {
      list {
        s: "loc:@linear/linear_model/x/weights/part_0"
      }
    }
  }
  attr {
    key: "_output_shapes"
    value {
      list {
        shape {
          dim {
            size: 1920
          }
          dim {
            size: 1
          }
        }
      }
    }
  }
  attr {
    key: "dtype"
    value {
      type: DT_FLOAT
    }
  }
  attr {
    key: "value"
    value {
      tensor {
        dtype: DT_FLOAT
        tensor_shape {
          dim {
            size: 1920
          }
          dim {
            size: 1
          }
        }
        float_val: 0.0
      }
    }
  }
}
node {
  name: "linear/linear_model/x/weights/part_0"
  op: "VariableV2"
  attr {
    key: "_class"
    value {
      list {
        s: "loc:@linear/linear_model/x/weights/part_0"
      }
    }
  }
  attr {
    key: "_output_shapes"
    value {
      list {
        shape {
          dim {
            size: 1920
          }
          dim {
            size: 1
          }
        }
      }
    }
  }
  attr {
    key: "container"
    value {
      s: ""
    }
  }
  attr {
    key: "dtype"
    value {
      type: DT_FLOAT
    }
  }
  attr {
    key: "shape"
    value {
      shape {
        dim {
          size: 1920
        }
        dim {
          size: 1
        }
      }
    }
  }
  attr {
    key: "shared_name"
    value {
      s: ""
    }
  }
}
node {
  name: "linear/linear_model/x/weights/part_0/Assign"
  op: "Assign"
  input: "linear/linear_model/x/weights/part_0"
  input: "linear/linear_model/x/weights/part_0/Initializer/zeros"
  attr {
    key: "T"
    value {
      type: DT_FLOAT
    }
  }
  attr {
    key: "_class"
    value {
      list {
        s: "loc:@linear/linear_model/x/weights/part_0"
      }
    }
  }
  attr {
    key: "_output_shapes"
    value {
      list {
        shape {
          dim {
            size: 1920
          }
          dim {
            size: 1
          }
        }
      }
    }
  }
  attr {
    key: "use_locking"
    value {
      b: true
    }
  }
  attr {
    key: "validate_shape"
    value {
      b: true
    }
  }
}
node {
  name: "linear/linear_model/x/weights/part_0/read"
  op: "Identity"
  input: "linear/linear_model/x/weights/part_0"
  attr {
    key: "T"
    value {
      type: DT_FLOAT
    }
  }
  attr {
    key: "_class"
    value {
      list {
        s: "loc:@linear/linear_model/x/weights/part_0"
      }
    }
  }
  attr {
    key: "_output_shapes"
    value {
      list {
        shape {
          dim {
            size: 1920
          }
          dim {
            size: 1
          }
        }
      }
    }
  }
}
node {
  name: "linear/linear_model/x/weights"
  op: "Identity"
  input: "linear/linear_model/x/weights/part_0/read"
  attr {
    key: "T"
    value {
      type: DT_FLOAT
    }
  }
  attr {
    key: "_output_shapes"
    value {
      list {
        shape {
          dim {
            size: 1920
          }
          dim {
            size: 1
          }
        }
      }
    }
  }
}
node {
  name: "linear/linear_model/x/weighted_sum"
  op: "MatMul"
  input: "linear/linear_model/x/Reshape"
  input: "linear/linear_model/x/weights"
  attr {
    key: "T"
    value {
      type: DT_FLOAT
    }
  }
  attr {
    key: "_output_shapes"
    value {
      list {
        shape {
          dim {
            size: -1
          }
          dim {
            size: 1
          }
        }
      }
    }
  }
  attr {
    key: "transpose_a"
    value {
      b: false
    }
  }
  attr {
    key: "transpose_b"
    value {
      b: false
    }
  }
}
node {
  name: "linear/linear_model/weighted_sum_no_bias"
  op: "Identity"
  input: "linear/linear_model/x/weighted_sum"
  attr {
    key: "T"
    value {
      type: DT_FLOAT
    }
  }
  attr {
    key: "_output_shapes"
    value {
      list {
        shape {
          dim {
            size: -1
          }
          dim {
            size: 1
          }
        }
      }
    }
  }
}
node {
  name: "linear/linear_model/bias_weights/part_0/Initializer/zeros"
  op: "Const"
  attr {
    key: "_class"
    value {
      list {
        s: "loc:@linear/linear_model/bias_weights/part_0"
      }
    }
  }
  attr {
    key: "_output_shapes"
    value {
      list {
        shape {
          dim {
            size: 1
          }
        }
      }
    }
  }
  attr {
    key: "dtype"
    value {
      type: DT_FLOAT
    }
  }
  attr {
    key: "value"
    value {
      tensor {
        dtype: DT_FLOAT
        tensor_shape {
          dim {
            size: 1
          }
        }
        float_val: 0.0
      }
    }
  }
}
node {
  name: "linear/linear_model/bias_weights/part_0"
  op: "VariableV2"
  attr {
    key: "_class"
    value {
      list {
        s: "loc:@linear/linear_model/bias_weights/part_0"
      }
    }
  }
  attr {
    key: "_output_shapes"
    value {
      list {
        shape {
          dim {
            size: 1
          }
        }
      }
    }
  }
  attr {
    key: "container"
    value {
      s: ""
    }
  }
  attr {
    key: "dtype"
    value {
      type: DT_FLOAT
    }
  }
  attr {
    key: "shape"
    value {
      shape {
        dim {
          size: 1
        }
      }
    }
  }
  attr {
    key: "shared_name"
    value {
      s: ""
    }
  }
}
node {
  name: "linear/linear_model/bias_weights/part_0/Assign"
  op: "Assign"
  input: "linear/linear_model/bias_weights/part_0"
  input: "linear/linear_model/bias_weights/part_0/Initializer/zeros"
  attr {
    key: "T"
    value {
      type: DT_FLOAT
    }
  }
  attr {
    key: "_class"
    value {
      list {
        s: "loc:@linear/linear_model/bias_weights/part_0"
      }
    }
  }
  attr {
    key: "_output_shapes"
    value {
      list {
        shape {
          dim {
            size: 1
          }
        }
      }
    }
  }
  attr {
    key: "use_locking"
    value {
      b: true
    }
  }
  attr {
    key: "validate_shape"
    value {
      b: true
    }
  }
}
node {
  name: "linear/linear_model/bias_weights/part_0/read"
  op: "Identity"
  input: "linear/linear_model/bias_weights/part_0"
  attr {
    key: "T"
    value {
      type: DT_FLOAT
    }
  }
  attr {
    key: "_class"
    value {
      list {
        s: "loc:@linear/linear_model/bias_weights/part_0"
      }
    }
  }
  attr {
    key: "_output_shapes"
    value {
      list {
        shape {
          dim {
            size: 1
          }
        }
      }
    }
  }
}
node {
  name: "linear/linear_model/bias_weights"
  op: "Identity"
  input: "linear/linear_model/bias_weights/part_0/read"
  attr {
    key: "T"
    value {
      type: DT_FLOAT
    }
  }
  attr {
    key: "_output_shapes"
    value {
      list {
        shape {
          dim {
            size: 1
          }
        }
      }
    }
  }
}
node {
  name: "linear/linear_model/weighted_sum"
  op: "BiasAdd"
  input: "linear/linear_model/weighted_sum_no_bias"
  input: "linear/linear_model/bias_weights"
  attr {
    key: "T"
    value {
      type: DT_FLOAT
    }
  }
  attr {
    key: "_output_shapes"
    value {
      list {
        shape {
          dim {
            size: -1
          }
          dim {
            size: 1
          }
        }
      }
    }
  }
  attr {
    key: "data_format"
    value {
      s: "NHWC"
    }
  }
}
node {
  name: "linear/head/predictions/logits/Shape"
  op: "Shape"
  input: "linear/linear_model/weighted_sum"
  attr {
    key: "T"
    value {
      type: DT_FLOAT
    }
  }
  attr {
    key: "_output_shapes"
    value {
      list {
        shape {
          dim {
            size: 2
          }
        }
      }
    }
  }
  attr {
    key: "out_type"
    value {
      type: DT_INT32
    }
  }
}
node {
  name: "linear/head/predictions/logits/assert_rank/rank"
  op: "Const"
  input: "^add"
  attr {
    key: "_output_shapes"
    value {
      list {
        shape {
        }
      }
    }
  }
  attr {
    key: "dtype"
    value {
      type: DT_INT32
    }
  }
  attr {
    key: "value"
    value {
      tensor {
        dtype: DT_INT32
        tensor_shape {
        }
        int_val: 2
      }
    }
  }
}
node {
  name: "linear/head/predictions/logits/assert_rank/assert_type/statically_determined_correct_type"
  op: "NoOp"
  input: "^add"
}
node {
  name: "linear/head/predictions/logits/assert_rank/static_checks_determined_all_ok"
  op: "NoOp"
  input: "^add"
}
node {
  name: "linear/head/predictions/logits/strided_slice/stack"
  op: "Const"
  input: "^add"
  input: "^linear/head/predictions/logits/assert_rank/static_checks_determined_all_ok"
  attr {
    key: "_output_shapes"
    value {
      list {
        shape {
          dim {
            size: 1
          }
        }
      }
    }
  }
  attr {
    key: "dtype"
    value {
      type: DT_INT32
    }
  }
  attr {
    key: "value"
    value {
      tensor {
        dtype: DT_INT32
        tensor_shape {
          dim {
            size: 1
          }
        }
        int_val: 1
      }
    }
  }
}
node {
  name: "linear/head/predictions/logits/strided_slice/stack_1"
  op: "Const"
  input: "^add"
  input: "^linear/head/predictions/logits/assert_rank/static_checks_determined_all_ok"
  attr {
    key: "_output_shapes"
    value {
      list {
        shape {
          dim {
            size: 1
          }
        }
      }
    }
  }
  attr {
    key: "dtype"
    value {
      type: DT_INT32
    }
  }
  attr {
    key: "value"
    value {
      tensor {
        dtype: DT_INT32
        tensor_shape {
          dim {
            size: 1
          }
        }
        int_val: 2
      }
    }
  }
}
node {
  name: "linear/head/predictions/logits/strided_slice/stack_2"
  op: "Const"
  input: "^add"
  input: "^linear/head/predictions/logits/assert_rank/static_checks_determined_all_ok"
  attr {
    key: "_output_shapes"
    value {
      list {
        shape {
          dim {
            size: 1
          }
        }
      }
    }
  }
  attr {
    key: "dtype"
    value {
      type: DT_INT32
    }
  }
  attr {
    key: "value"
    value {
      tensor {
        dtype: DT_INT32
        tensor_shape {
          dim {
            size: 1
          }
        }
        int_val: 1
      }
    }
  }
}
node {
  name: "linear/head/predictions/logits/strided_slice"
  op: "StridedSlice"
  input: "linear/head/predictions/logits/Shape"
  input: "linear/head/predictions/logits/strided_slice/stack"
  input: "linear/head/predictions/logits/strided_slice/stack_1"
  input: "linear/head/predictions/logits/strided_slice/stack_2"
  attr {
    key: "Index"
    value {
      type: DT_INT32
    }
  }
  attr {
    key: "T"
    value {
      type: DT_INT32
    }
  }
  attr {
    key: "_output_shapes"
    value {
      list {
        shape {
        }
      }
    }
  }
  attr {
    key: "begin_mask"
    value {
      i: 0
    }
  }
  attr {
    key: "ellipsis_mask"
    value {
      i: 0
    }
  }
  attr {
    key: "end_mask"
    value {
      i: 0
    }
  }
  attr {
    key: "new_axis_mask"
    value {
      i: 0
    }
  }
  attr {
    key: "shrink_axis_mask"
    value {
      i: 1
    }
  }
}
node {
  name: "linear/head/predictions/logits/assert_equal/x"
  op: "Const"
  input: "^add"
  input: "^linear/head/predictions/logits/assert_rank/static_checks_determined_all_ok"
  attr {
    key: "_output_shapes"
    value {
      list {
        shape {
        }
      }
    }
  }
  attr {
    key: "dtype"
    value {
      type: DT_INT32
    }
  }
  attr {
    key: "value"
    value {
      tensor {
        dtype: DT_INT32
        tensor_shape {
        }
        int_val: 1
      }
    }
  }
}
node {
  name: "linear/head/predictions/logits/assert_equal/Equal"
  op: "Equal"
  input: "linear/head/predictions/logits/assert_equal/x"
  input: "linear/head/predictions/logits/strided_slice"
  attr {
    key: "T"
    value {
      type: DT_INT32
    }
  }
  attr {
    key: "_output_shapes"
    value {
      list {
        shape {
        }
      }
    }
  }
}
node {
  name: "linear/head/predictions/logits/assert_equal/Const"
  op: "Const"
  input: "^add"
  input: "^linear/head/predictions/logits/assert_rank/static_checks_determined_all_ok"
  attr {
    key: "_output_shapes"
    value {
      list {
        shape {
          dim {
          }
        }
      }
    }
  }
  attr {
    key: "dtype"
    value {
      type: DT_INT32
    }
  }
  attr {
    key: "value"
    value {
      tensor {
        dtype: DT_INT32
        tensor_shape {
          dim {
          }
        }
      }
    }
  }
}
node {
  name: "linear/head/predictions/logits/assert_equal/All"
  op: "All"
  input: "linear/head/predictions/logits/assert_equal/Equal"
  input: "linear/head/predictions/logits/assert_equal/Const"
  attr {
    key: "Tidx"
    value {
      type: DT_INT32
    }
  }
  attr {
    key: "_output_shapes"
    value {
      list {
        shape {
        }
      }
    }
  }
  attr {
    key: "keep_dims"
    value {
      b: false
    }
  }
}
node {
  name: "linear/head/predictions/logits/assert_equal/Assert/Assert"
  op: "Assert"
  input: "linear/head/predictions/logits/assert_equal/All"
  input: "linear/head/predictions/logits/Shape"
  attr {
    key: "T"
    value {
      list {
        type: DT_INT32
      }
    }
  }
  attr {
    key: "summarize"
    value {
      i: 3
    }
  }
}
node {
  name: "linear/head/predictions/logits"
  op: "Identity"
  input: "linear/linear_model/weighted_sum"
  input: "^linear/head/predictions/logits/assert_rank/static_checks_determined_all_ok"
  input: "^linear/head/predictions/logits/assert_equal/Assert/Assert"
  attr {
    key: "T"
    value {
      type: DT_FLOAT
    }
  }
  attr {
    key: "_output_shapes"
    value {
      list {
        shape {
          dim {
            size: -1
          }
          dim {
            size: 1
          }
        }
      }
    }
  }
}
node {
  name: "linear/head/predictions/logistic"
  op: "Sigmoid"
  input: "linear/head/predictions/logits"
  attr {
    key: "T"
    value {
      type: DT_FLOAT
    }
  }
  attr {
    key: "_output_shapes"
    value {
      list {
        shape {
          dim {
            size: -1
          }
          dim {
            size: 1
          }
        }
      }
    }
  }
}
node {
  name: "linear/head/predictions/zeros_like"
  op: "ZerosLike"
  input: "linear/head/predictions/logits"
  attr {
    key: "T"
    value {
      type: DT_FLOAT
    }
  }
  attr {
    key: "_output_shapes"
    value {
      list {
        shape {
          dim {
            size: -1
          }
          dim {
            size: 1
          }
        }
      }
    }
  }
}
node {
  name: "linear/head/predictions/two_class_logits/axis"
  op: "Const"
  input: "^add"
  attr {
    key: "_output_shapes"
    value {
      list {
        shape {
        }
      }
    }
  }
  attr {
    key: "dtype"
    value {
      type: DT_INT32
    }
  }
  attr {
    key: "value"
    value {
      tensor {
        dtype: DT_INT32
        tensor_shape {
        }
        int_val: 1
      }
    }
  }
}
node {
  name: "linear/head/predictions/two_class_logits"
  op: "ConcatV2"
  input: "linear/head/predictions/zeros_like"
  input: "linear/head/predictions/logits"
  input: "linear/head/predictions/two_class_logits/axis"
  attr {
    key: "N"
    value {
      i: 2
    }
  }
  attr {
    key: "T"
    value {
      type: DT_FLOAT
    }
  }
  attr {
    key: "Tidx"
    value {
      type: DT_INT32
    }
  }
  attr {
    key: "_output_shapes"
    value {
      list {
        shape {
          dim {
            size: -1
          }
          dim {
            size: 2
          }
        }
      }
    }
  }
}
node {
  name: "linear/head/predictions/probabilities"
  op: "Softmax"
  input: "linear/head/predictions/two_class_logits"
  attr {
    key: "T"
    value {
      type: DT_FLOAT
    }
  }
  attr {
    key: "_output_shapes"
    value {
      list {
        shape {
          dim {
            size: -1
          }
          dim {
            size: 2
          }
        }
      }
    }
  }
}
node {
  name: "linear/head/predictions/ArgMax/dimension"
  op: "Const"
  input: "^add"
  attr {
    key: "_output_shapes"
    value {
      list {
        shape {
        }
      }
    }
  }
  attr {
    key: "dtype"
    value {
      type: DT_INT32
    }
  }
  attr {
    key: "value"
    value {
      tensor {
        dtype: DT_INT32
        tensor_shape {
        }
        int_val: 1
      }
    }
  }
}
node {
  name: "linear/head/predictions/ArgMax"
  op: "ArgMax"
  input: "linear/head/predictions/two_class_logits"
  input: "linear/head/predictions/ArgMax/dimension"
  attr {
    key: "T"
    value {
      type: DT_FLOAT
    }
  }
  attr {
    key: "Tidx"
    value {
      type: DT_INT32
    }
  }
  attr {
    key: "_output_shapes"
    value {
      list {
        shape {
          dim {
            size: -1
          }
        }
      }
    }
  }
  attr {
    key: "output_type"
    value {
      type: DT_INT64
    }
  }
}
node {
  name: "linear/head/predictions/classes/shape"
  op: "Const"
  input: "^add"
  attr {
    key: "_output_shapes"
    value {
      list {
        shape {
          dim {
            size: 2
          }
        }
      }
    }
  }
  attr {
    key: "dtype"
    value {
      type: DT_INT32
    }
  }
  attr {
    key: "value"
    value {
      tensor {
        dtype: DT_INT32
        tensor_shape {
          dim {
            size: 2
          }
        }
        tensor_content: "\377\377\377\377\001\000\000\000"
      }
    }
  }
}
node {
  name: "linear/head/predictions/classes"
  op: "Reshape"
  input: "linear/head/predictions/ArgMax"
  input: "linear/head/predictions/classes/shape"
  attr {
    key: "T"
    value {
      type: DT_INT64
    }
  }
  attr {
    key: "Tshape"
    value {
      type: DT_INT32
    }
  }
  attr {
    key: "_output_shapes"
    value {
      list {
        shape {
          dim {
            size: -1
          }
          dim {
            size: 1
          }
        }
      }
    }
  }
}
node {
  name: "linear/head/predictions/str_classes"
  op: "AsString"
  input: "linear/head/predictions/classes"
  attr {
    key: "T"
    value {
      type: DT_INT64
    }
  }
  attr {
    key: "_output_shapes"
    value {
      list {
        shape {
          dim {
            size: -1
          }
          dim {
            size: 1
          }
        }
      }
    }
  }
  attr {
    key: "fill"
    value {
      s: ""
    }
  }
  attr {
    key: "precision"
    value {
      i: -1
    }
  }
  attr {
    key: "scientific"
    value {
      b: false
    }
  }
  attr {
    key: "shortest"
    value {
      b: false
    }
  }
  attr {
    key: "width"
    value {
      i: -1
    }
  }
}
node {
  name: "linear/head/labels/Shape"
  op: "Shape"
  input: "ExpandDims"
  input: "^add"
  attr {
    key: "T"
    value {
      type: DT_FLOAT
    }
  }
  attr {
    key: "_output_shapes"
    value {
      list {
        shape {
          dim {
            size: -1
          }
        }
      }
    }
  }
  attr {
    key: "out_type"
    value {
      type: DT_INT32
    }
  }
}
node {
  name: "linear/head/labels/assert_rank/rank"
  op: "Const"
  input: "^add"
  attr {
    key: "_output_shapes"
    value {
      list {
        shape {
        }
      }
    }
  }
  attr {
    key: "dtype"
    value {
      type: DT_INT32
    }
  }
  attr {
    key: "value"
    value {
      tensor {
        dtype: DT_INT32
        tensor_shape {
        }
        int_val: 2
      }
    }
  }
}
node {
  name: "linear/head/labels/assert_rank/Shape"
  op: "Shape"
  input: "ExpandDims"
  input: "^add"
  attr {
    key: "T"
    value {
      type: DT_FLOAT
    }
  }
  attr {
    key: "_output_shapes"
    value {
      list {
        shape {
          dim {
            size: -1
          }
        }
      }
    }
  }
  attr {
    key: "out_type"
    value {
      type: DT_INT32
    }
  }
}
node {
  name: "linear/head/labels/assert_rank/assert_type/statically_determined_correct_type"
  op: "NoOp"
  input: "^add"
}
node {
  name: "linear/head/labels/assert_rank/Rank"
  op: "Rank"
  input: "ExpandDims"
  input: "^add"
  attr {
    key: "T"
    value {
      type: DT_FLOAT
    }
  }
  attr {
    key: "_output_shapes"
    value {
      list {
        shape {
        }
      }
    }
  }
}
node {
  name: "linear/head/labels/assert_rank/Equal"
  op: "Equal"
  input: "linear/head/labels/assert_rank/Rank"
  input: "linear/head/labels/assert_rank/rank"
  attr {
    key: "T"
    value {
      type: DT_INT32
    }
  }
  attr {
    key: "_output_shapes"
    value {
      list {
        shape {
        }
      }
    }
  }
}
node {
  name: "linear/head/labels/assert_rank/Assert/Const"
  op: "Const"
  input: "^add"
  attr {
    key: "_output_shapes"
    value {
      list {
        shape {
        }
      }
    }
  }
  attr {
    key: "dtype"
    value {
      type: DT_STRING
    }
  }
  attr {
    key: "value"
    value {
      tensor {
        dtype: DT_STRING
        tensor_shape {
        }
        string_val: "labels shape must be [batch_size, 1]"
      }
    }
  }
}
node {
  name: "linear/head/labels/assert_rank/Assert/Const_1"
  op: "Const"
  input: "^add"
  attr {
    key: "_output_shapes"
    value {
      list {
        shape {
        }
      }
    }
  }
  attr {
    key: "dtype"
    value {
      type: DT_STRING
    }
  }
  attr {
    key: "value"
    value {
      tensor {
        dtype: DT_STRING
        tensor_shape {
        }
        string_val: "Tensor ExpandDims:0 must have rank"
      }
    }
  }
}
node {
  name: "linear/head/labels/assert_rank/Assert/Const_2"
  op: "Const"
  input: "^add"
  attr {
    key: "_output_shapes"
    value {
      list {
        shape {
        }
      }
    }
  }
  attr {
    key: "dtype"
    value {
      type: DT_STRING
    }
  }
  attr {
    key: "value"
    value {
      tensor {
        dtype: DT_STRING
        tensor_shape {
        }
        string_val: "Received shape: "
      }
    }
  }
}
node {
  name: "linear/head/labels/assert_rank/Assert/Assert/data_0"
  op: "Const"
  input: "^add"
  attr {
    key: "_output_shapes"
    value {
      list {
        shape {
        }
      }
    }
  }
  attr {
    key: "dtype"
    value {
      type: DT_STRING
    }
  }
  attr {
    key: "value"
    value {
      tensor {
        dtype: DT_STRING
        tensor_shape {
        }
        string_val: "labels shape must be [batch_size, 1]"
      }
    }
  }
}
node {
  name: "linear/head/labels/assert_rank/Assert/Assert/data_1"
  op: "Const"
  input: "^add"
  attr {
    key: "_output_shapes"
    value {
      list {
        shape {
        }
      }
    }
  }
  attr {
    key: "dtype"
    value {
      type: DT_STRING
    }
  }
  attr {
    key: "value"
    value {
      tensor {
        dtype: DT_STRING
        tensor_shape {
        }
        string_val: "Tensor ExpandDims:0 must have rank"
      }
    }
  }
}
node {
  name: "linear/head/labels/assert_rank/Assert/Assert/data_3"
  op: "Const"
  input: "^add"
  attr {
    key: "_output_shapes"
    value {
      list {
        shape {
        }
      }
    }
  }
  attr {
    key: "dtype"
    value {
      type: DT_STRING
    }
  }
  attr {
    key: "value"
    value {
      tensor {
        dtype: DT_STRING
        tensor_shape {
        }
        string_val: "Received shape: "
      }
    }
  }
}
node {
  name: "linear/head/labels/assert_rank/Assert/Assert"
  op: "Assert"
  input: "linear/head/labels/assert_rank/Equal"
  input: "linear/head/labels/assert_rank/Assert/Assert/data_0"
  input: "linear/head/labels/assert_rank/Assert/Assert/data_1"
  input: "linear/head/labels/assert_rank/rank"
  input: "linear/head/labels/assert_rank/Assert/Assert/data_3"
  input: "linear/head/labels/assert_rank/Shape"
  attr {
    key: "T"
    value {
      list {
        type: DT_STRING
        type: DT_STRING
        type: DT_INT32
        type: DT_STRING
        type: DT_INT32
      }
    }
  }
  attr {
    key: "summarize"
    value {
      i: 3
    }
  }
}
node {
  name: "linear/head/labels/strided_slice/stack"
  op: "Const"
  input: "^add"
  input: "^linear/head/labels/assert_rank/Assert/Assert"
  attr {
    key: "_output_shapes"
    value {
      list {
        shape {
          dim {
            size: 1
          }
        }
      }
    }
  }
  attr {
    key: "dtype"
    value {
      type: DT_INT32
    }
  }
  attr {
    key: "value"
    value {
      tensor {
        dtype: DT_INT32
        tensor_shape {
          dim {
            size: 1
          }
        }
        int_val: 1
      }
    }
  }
}
node {
  name: "linear/head/labels/strided_slice/stack_1"
  op: "Const"
  input: "^add"
  input: "^linear/head/labels/assert_rank/Assert/Assert"
  attr {
    key: "_output_shapes"
    value {
      list {
        shape {
          dim {
            size: 1
          }
        }
      }
    }
  }
  attr {
    key: "dtype"
    value {
      type: DT_INT32
    }
  }
  attr {
    key: "value"
    value {
      tensor {
        dtype: DT_INT32
        tensor_shape {
          dim {
            size: 1
          }
        }
        int_val: 2
      }
    }
  }
}
node {
  name: "linear/head/labels/strided_slice/stack_2"
  op: "Const"
  input: "^add"
  input: "^linear/head/labels/assert_rank/Assert/Assert"
  attr {
    key: "_output_shapes"
    value {
      list {
        shape {
          dim {
            size: 1
          }
        }
      }
    }
  }
  attr {
    key: "dtype"
    value {
      type: DT_INT32
    }
  }
  attr {
    key: "value"
    value {
      tensor {
        dtype: DT_INT32
        tensor_shape {
          dim {
            size: 1
          }
        }
        int_val: 1
      }
    }
  }
}
node {
  name: "linear/head/labels/strided_slice"
  op: "StridedSlice"
  input: "linear/head/labels/Shape"
  input: "linear/head/labels/strided_slice/stack"
  input: "linear/head/labels/strided_slice/stack_1"
  input: "linear/head/labels/strided_slice/stack_2"
  attr {
    key: "Index"
    value {
      type: DT_INT32
    }
  }
  attr {
    key: "T"
    value {
      type: DT_INT32
    }
  }
  attr {
    key: "_output_shapes"
    value {
      list {
        shape {
        }
      }
    }
  }
  attr {
    key: "begin_mask"
    value {
      i: 0
    }
  }
  attr {
    key: "ellipsis_mask"
    value {
      i: 0
    }
  }
  attr {
    key: "end_mask"
    value {
      i: 0
    }
  }
  attr {
    key: "new_axis_mask"
    value {
      i: 0
    }
  }
  attr {
    key: "shrink_axis_mask"
    value {
      i: 1
    }
  }
}
node {
  name: "linear/head/labels/assert_equal/x"
  op: "Const"
  input: "^add"
  input: "^linear/head/labels/assert_rank/Assert/Assert"
  attr {
    key: "_output_shapes"
    value {
      list {
        shape {
        }
      }
    }
  }
  attr {
    key: "dtype"
    value {
      type: DT_INT32
    }
  }
  attr {
    key: "value"
    value {
      tensor {
        dtype: DT_INT32
        tensor_shape {
        }
        int_val: 1
      }
    }
  }
}
node {
  name: "linear/head/labels/assert_equal/Equal"
  op: "Equal"
  input: "linear/head/labels/assert_equal/x"
  input: "linear/head/labels/strided_slice"
  attr {
    key: "T"
    value {
      type: DT_INT32
    }
  }
  attr {
    key: "_output_shapes"
    value {
      list {
        shape {
        }
      }
    }
  }
}
node {
  name: "linear/head/labels/assert_equal/Const"
  op: "Const"
  input: "^add"
  input: "^linear/head/labels/assert_rank/Assert/Assert"
  attr {
    key: "_output_shapes"
    value {
      list {
        shape {
          dim {
          }
        }
      }
    }
  }
  attr {
    key: "dtype"
    value {
      type: DT_INT32
    }
  }
  attr {
    key: "value"
    value {
      tensor {
        dtype: DT_INT32
        tensor_shape {
          dim {
          }
        }
      }
    }
  }
}
node {
  name: "linear/head/labels/assert_equal/All"
  op: "All"
  input: "linear/head/labels/assert_equal/Equal"
  input: "linear/head/labels/assert_equal/Const"
  attr {
    key: "Tidx"
    value {
      type: DT_INT32
    }
  }
  attr {
    key: "_output_shapes"
    value {
      list {
        shape {
        }
      }
    }
  }
  attr {
    key: "keep_dims"
    value {
      b: false
    }
  }
}
node {
  name: "linear/head/labels/assert_equal/Assert/Const"
  op: "Const"
  input: "^add"
  input: "^linear/head/labels/assert_rank/Assert/Assert"
  attr {
    key: "_output_shapes"
    value {
      list {
        shape {
        }
      }
    }
  }
  attr {
    key: "dtype"
    value {
      type: DT_STRING
    }
  }
  attr {
    key: "value"
    value {
      tensor {
        dtype: DT_STRING
        tensor_shape {
        }
        string_val: "labels shape must be [batch_size, 1]"
      }
    }
  }
}
node {
  name: "linear/head/labels/assert_equal/Assert/Const_1"
  op: "Const"
  input: "^add"
  input: "^linear/head/labels/assert_rank/Assert/Assert"
  attr {
    key: "_output_shapes"
    value {
      list {
        shape {
        }
      }
    }
  }
  attr {
    key: "dtype"
    value {
      type: DT_STRING
    }
  }
  attr {
    key: "value"
    value {
      tensor {
        dtype: DT_STRING
        tensor_shape {
        }
        string_val: "Condition x == y did not hold element-wise:"
      }
    }
  }
}
node {
  name: "linear/head/labels/assert_equal/Assert/Const_2"
  op: "Const"
  input: "^add"
  input: "^linear/head/labels/assert_rank/Assert/Assert"
  attr {
    key: "_output_shapes"
    value {
      list {
        shape {
        }
      }
    }
  }
  attr {
    key: "dtype"
    value {
      type: DT_STRING
    }
  }
  attr {
    key: "value"
    value {
      tensor {
        dtype: DT_STRING
        tensor_shape {
        }
        string_val: "x (linear/head/labels/assert_equal/x:0) = "
      }
    }
  }
}
node {
  name: "linear/head/labels/assert_equal/Assert/Const_3"
  op: "Const"
  input: "^add"
  input: "^linear/head/labels/assert_rank/Assert/Assert"
  attr {
    key: "_output_shapes"
    value {
      list {
        shape {
        }
      }
    }
  }
  attr {
    key: "dtype"
    value {
      type: DT_STRING
    }
  }
  attr {
    key: "value"
    value {
      tensor {
        dtype: DT_STRING
        tensor_shape {
        }
        string_val: "y (linear/head/labels/strided_slice:0) = "
      }
    }
  }
}
node {
  name: "linear/head/labels/assert_equal/Assert/Assert/data_0"
  op: "Const"
  input: "^add"
  input: "^linear/head/labels/assert_rank/Assert/Assert"
  attr {
    key: "_output_shapes"
    value {
      list {
        shape {
        }
      }
    }
  }
  attr {
    key: "dtype"
    value {
      type: DT_STRING
    }
  }
  attr {
    key: "value"
    value {
      tensor {
        dtype: DT_STRING
        tensor_shape {
        }
        string_val: "labels shape must be [batch_size, 1]"
      }
    }
  }
}
node {
  name: "linear/head/labels/assert_equal/Assert/Assert/data_1"
  op: "Const"
  input: "^add"
  input: "^linear/head/labels/assert_rank/Assert/Assert"
  attr {
    key: "_output_shapes"
    value {
      list {
        shape {
        }
      }
    }
  }
  attr {
    key: "dtype"
    value {
      type: DT_STRING
    }
  }
  attr {
    key: "value"
    value {
      tensor {
        dtype: DT_STRING
        tensor_shape {
        }
        string_val: "Condition x == y did not hold element-wise:"
      }
    }
  }
}
node {
  name: "linear/head/labels/assert_equal/Assert/Assert/data_2"
  op: "Const"
  input: "^add"
  input: "^linear/head/labels/assert_rank/Assert/Assert"
  attr {
    key: "_output_shapes"
    value {
      list {
        shape {
        }
      }
    }
  }
  attr {
    key: "dtype"
    value {
      type: DT_STRING
    }
  }
  attr {
    key: "value"
    value {
      tensor {
        dtype: DT_STRING
        tensor_shape {
        }
        string_val: "x (linear/head/labels/assert_equal/x:0) = "
      }
    }
  }
}
node {
  name: "linear/head/labels/assert_equal/Assert/Assert/data_4"
  op: "Const"
  input: "^add"
  input: "^linear/head/labels/assert_rank/Assert/Assert"
  attr {
    key: "_output_shapes"
    value {
      list {
        shape {
        }
      }
    }
  }
  attr {
    key: "dtype"
    value {
      type: DT_STRING
    }
  }
  attr {
    key: "value"
    value {
      tensor {
        dtype: DT_STRING
        tensor_shape {
        }
        string_val: "y (linear/head/labels/strided_slice:0) = "
      }
    }
  }
}
node {
  name: "linear/head/labels/assert_equal/Assert/Assert"
  op: "Assert"
  input: "linear/head/labels/assert_equal/All"
  input: "linear/head/labels/assert_equal/Assert/Assert/data_0"
  input: "linear/head/labels/assert_equal/Assert/Assert/data_1"
  input: "linear/head/labels/assert_equal/Assert/Assert/data_2"
  input: "linear/head/labels/assert_equal/x"
  input: "linear/head/labels/assert_equal/Assert/Assert/data_4"
  input: "linear/head/labels/strided_slice"
  attr {
    key: "T"
    value {
      list {
        type: DT_STRING
        type: DT_STRING
        type: DT_STRING
        type: DT_INT32
        type: DT_STRING
        type: DT_INT32
      }
    }
  }
  attr {
    key: "summarize"
    value {
      i: 3
    }
  }
}
node {
  name: "linear/head/labels"
  op: "Identity"
  input: "ExpandDims"
  input: "^add"
  input: "^linear/head/labels/assert_rank/Assert/Assert"
  input: "^linear/head/labels/assert_equal/Assert/Assert"
  attr {
    key: "T"
    value {
      type: DT_FLOAT
    }
  }
  attr {
    key: "_output_shapes"
    value {
      list {
        shape {
          unknown_rank: true
        }
      }
    }
  }
}
node {
  name: "linear/head/assert_range/Const"
  op: "Const"
  input: "^add"
  attr {
    key: "_output_shapes"
    value {
      list {
        shape {
        }
      }
    }
  }
  attr {
    key: "dtype"
    value {
      type: DT_FLOAT
    }
  }
  attr {
    key: "value"
    value {
      tensor {
        dtype: DT_FLOAT
        tensor_shape {
        }
        float_val: 2.0
      }
    }
  }
}
node {
  name: "linear/head/assert_range/assert_less/Less"
  op: "Less"
  input: "linear/head/labels"
  input: "linear/head/assert_range/Const"
  attr {
    key: "T"
    value {
      type: DT_FLOAT
    }
  }
  attr {
    key: "_output_shapes"
    value {
      list {
        shape {
          unknown_rank: true
        }
      }
    }
  }
}
node {
  name: "linear/head/assert_range/assert_less/Rank"
  op: "Rank"
  input: "linear/head/assert_range/assert_less/Less"
  attr {
    key: "T"
    value {
      type: DT_BOOL
    }
  }
  attr {
    key: "_output_shapes"
    value {
      list {
        shape {
        }
      }
    }
  }
}
node {
  name: "linear/head/assert_range/assert_less/range/start"
  op: "Const"
  input: "^add"
  attr {
    key: "_output_shapes"
    value {
      list {
        shape {
        }
      }
    }
  }
  attr {
    key: "dtype"
    value {
      type: DT_INT32
    }
  }
  attr {
    key: "value"
    value {
      tensor {
        dtype: DT_INT32
        tensor_shape {
        }
        int_val: 0
      }
    }
  }
}
node {
  name: "linear/head/assert_range/assert_less/range/delta"
  op: "Const"
  input: "^add"
  attr {
    key: "_output_shapes"
    value {
      list {
        shape {
        }
      }
    }
  }
  attr {
    key: "dtype"
    value {
      type: DT_INT32
    }
  }
  attr {
    key: "value"
    value {
      tensor {
        dtype: DT_INT32
        tensor_shape {
        }
        int_val: 1
      }
    }
  }
}
node {
  name: "linear/head/assert_range/assert_less/range"
  op: "Range"
  input: "linear/head/assert_range/assert_less/range/start"
  input: "linear/head/assert_range/assert_less/Rank"
  input: "linear/head/assert_range/assert_less/range/delta"
  attr {
    key: "Tidx"
    value {
      type: DT_INT32
    }
  }
  attr {
    key: "_output_shapes"
    value {
      list {
        shape {
          dim {
            size: -1
          }
        }
      }
    }
  }
}
node {
  name: "linear/head/assert_range/assert_less/All"
  op: "All"
  input: "linear/head/assert_range/assert_less/Less"
  input: "linear/head/assert_range/assert_less/range"
  attr {
    key: "Tidx"
    value {
      type: DT_INT32
    }
  }
  attr {
    key: "_output_shapes"
    value {
      list {
        shape {
          unknown_rank: true
        }
      }
    }
  }
  attr {
    key: "keep_dims"
    value {
      b: false
    }
  }
}
node {
  name: "linear/head/assert_range/assert_less/Assert/Const"
  op: "Const"
  input: "^add"
  attr {
    key: "_output_shapes"
    value {
      list {
        shape {
        }
      }
    }
  }
  attr {
    key: "dtype"
    value {
      type: DT_STRING
    }
  }
  attr {
    key: "value"
    value {
      tensor {
        dtype: DT_STRING
        tensor_shape {
        }
        string_val: "Label IDs must < n_classes"
      }
    }
  }
}
node {
  name: "linear/head/assert_range/assert_less/Assert/Const_1"
  op: "Const"
  input: "^add"
  attr {
    key: "_output_shapes"
    value {
      list {
        shape {
        }
      }
    }
  }
  attr {
    key: "dtype"
    value {
      type: DT_STRING
    }
  }
  attr {
    key: "value"
    value {
      tensor {
        dtype: DT_STRING
        tensor_shape {
        }
        string_val: "Condition x < y did not hold element-wise:x (linear/head/labels:0) = "
      }
    }
  }
}
node {
  name: "linear/head/assert_range/assert_less/Assert/Const_2"
  op: "Const"
  input: "^add"
  attr {
    key: "_output_shapes"
    value {
      list {
        shape {
        }
      }
    }
  }
  attr {
    key: "dtype"
    value {
      type: DT_STRING
    }
  }
  attr {
    key: "value"
    value {
      tensor {
        dtype: DT_STRING
        tensor_shape {
        }
        string_val: "y (linear/head/assert_range/Const:0) = "
      }
    }
  }
}
node {
  name: "linear/head/assert_range/assert_less/Assert/AssertGuard/Switch"
  op: "Switch"
  input: "linear/head/assert_range/assert_less/All"
  input: "linear/head/assert_range/assert_less/All"
  attr {
    key: "T"
    value {
      type: DT_BOOL
    }
  }
  attr {
    key: "_output_shapes"
    value {
      list {
        shape {
          unknown_rank: true
        }
        shape {
          unknown_rank: true
        }
      }
    }
  }
}
node {
  name: "linear/head/assert_range/assert_less/Assert/AssertGuard/switch_t"
  op: "Identity"
  input: "linear/head/assert_range/assert_less/Assert/AssertGuard/Switch:1"
  attr {
    key: "T"
    value {
      type: DT_BOOL
    }
  }
  attr {
    key: "_output_shapes"
    value {
      list {
        shape {
          unknown_rank: true
        }
      }
    }
  }
}
node {
  name: "linear/head/assert_range/assert_less/Assert/AssertGuard/switch_f"
  op: "Identity"
  input: "linear/head/assert_range/assert_less/Assert/AssertGuard/Switch"
  attr {
    key: "T"
    value {
      type: DT_BOOL
    }
  }
  attr {
    key: "_output_shapes"
    value {
      list {
        shape {
          unknown_rank: true
        }
      }
    }
  }
}
node {
  name: "linear/head/assert_range/assert_less/Assert/AssertGuard/pred_id"
  op: "Identity"
  input: "linear/head/assert_range/assert_less/All"
  attr {
    key: "T"
    value {
      type: DT_BOOL
    }
  }
  attr {
    key: "_output_shapes"
    value {
      list {
        shape {
          unknown_rank: true
        }
      }
    }
  }
}
node {
  name: "linear/head/assert_range/assert_less/Assert/AssertGuard/NoOp"
  op: "NoOp"
  input: "^add"
  input: "^linear/head/assert_range/assert_less/Assert/AssertGuard/switch_t"
}
node {
  name: "linear/head/assert_range/assert_less/Assert/AssertGuard/control_dependency"
  op: "Identity"
  input: "linear/head/assert_range/assert_less/Assert/AssertGuard/switch_t"
  input: "^linear/head/assert_range/assert_less/Assert/AssertGuard/NoOp"
  attr {
    key: "T"
    value {
      type: DT_BOOL
    }
  }
  attr {
    key: "_class"
    value {
      list {
        s: "loc:@linear/head/assert_range/assert_less/Assert/AssertGuard/switch_t"
      }
    }
  }
  attr {
    key: "_output_shapes"
    value {
      list {
        shape {
          unknown_rank: true
        }
      }
    }
  }
}
node {
  name: "linear/head/assert_range/assert_less/Assert/AssertGuard/Assert/data_0"
  op: "Const"
  input: "^add"
  input: "^linear/head/assert_range/assert_less/Assert/AssertGuard/switch_f"
  attr {
    key: "_output_shapes"
    value {
      list {
        shape {
        }
      }
    }
  }
  attr {
    key: "dtype"
    value {
      type: DT_STRING
    }
  }
  attr {
    key: "value"
    value {
      tensor {
        dtype: DT_STRING
        tensor_shape {
        }
        string_val: "Label IDs must < n_classes"
      }
    }
  }
}
node {
  name: "linear/head/assert_range/assert_less/Assert/AssertGuard/Assert/data_1"
  op: "Const"
  input: "^add"
  input: "^linear/head/assert_range/assert_less/Assert/AssertGuard/switch_f"
  attr {
    key: "_output_shapes"
    value {
      list {
        shape {
        }
      }
    }
  }
  attr {
    key: "dtype"
    value {
      type: DT_STRING
    }
  }
  attr {
    key: "value"
    value {
      tensor {
        dtype: DT_STRING
        tensor_shape {
        }
        string_val: "Condition x < y did not hold element-wise:x (linear/head/labels:0) = "
      }
    }
  }
}
node {
  name: "linear/head/assert_range/assert_less/Assert/AssertGuard/Assert/data_3"
  op: "Const"
  input: "^add"
  input: "^linear/head/assert_range/assert_less/Assert/AssertGuard/switch_f"
  attr {
    key: "_output_shapes"
    value {
      list {
        shape {
        }
      }
    }
  }
  attr {
    key: "dtype"
    value {
      type: DT_STRING
    }
  }
  attr {
    key: "value"
    value {
      tensor {
        dtype: DT_STRING
        tensor_shape {
        }
        string_val: "y (linear/head/assert_range/Const:0) = "
      }
    }
  }
}
node {
  name: "linear/head/assert_range/assert_less/Assert/AssertGuard/Assert/Switch"
  op: "Switch"
  input: "linear/head/assert_range/assert_less/All"
  input: "linear/head/assert_range/assert_less/Assert/AssertGuard/pred_id"
  attr {
    key: "T"
    value {
      type: DT_BOOL
    }
  }
  attr {
    key: "_class"
    value {
      list {
        s: "loc:@linear/head/assert_range/assert_less/All"
      }
    }
  }
  attr {
    key: "_output_shapes"
    value {
      list {
        shape {
          unknown_rank: true
        }
        shape {
          unknown_rank: true
        }
      }
    }
  }
}
node {
  name: "linear/head/assert_range/assert_less/Assert/AssertGuard/Assert/Switch_1"
  op: "Switch"
  input: "linear/head/labels"
  input: "linear/head/assert_range/assert_less/Assert/AssertGuard/pred_id"
  attr {
    key: "T"
    value {
      type: DT_FLOAT
    }
  }
  attr {
    key: "_class"
    value {
      list {
        s: "loc:@linear/head/labels"
      }
    }
  }
  attr {
    key: "_output_shapes"
    value {
      list {
        shape {
          unknown_rank: true
        }
        shape {
          unknown_rank: true
        }
      }
    }
  }
}
node {
  name: "linear/head/assert_range/assert_less/Assert/AssertGuard/Assert/Switch_2"
  op: "Switch"
  input: "linear/head/assert_range/Const"
  input: "linear/head/assert_range/assert_less/Assert/AssertGuard/pred_id"
  attr {
    key: "T"
    value {
      type: DT_FLOAT
    }
  }
  attr {
    key: "_class"
    value {
      list {
        s: "loc:@linear/head/assert_range/Const"
      }
    }
  }
  attr {
    key: "_output_shapes"
    value {
      list {
        shape {
        }
        shape {
        }
      }
    }
  }
}
node {
  name: "linear/head/assert_range/assert_less/Assert/AssertGuard/Assert"
  op: "Assert"
  input: "linear/head/assert_range/assert_less/Assert/AssertGuard/Assert/Switch"
  input: "linear/head/assert_range/assert_less/Assert/AssertGuard/Assert/data_0"
  input: "linear/head/assert_range/assert_less/Assert/AssertGuard/Assert/data_1"
  input: "linear/head/assert_range/assert_less/Assert/AssertGuard/Assert/Switch_1"
  input: "linear/head/assert_range/assert_less/Assert/AssertGuard/Assert/data_3"
  input: "linear/head/assert_range/assert_less/Assert/AssertGuard/Assert/Switch_2"
  attr {
    key: "T"
    value {
      list {
        type: DT_STRING
        type: DT_STRING
        type: DT_FLOAT
        type: DT_STRING
        type: DT_FLOAT
      }
    }
  }
  attr {
    key: "summarize"
    value {
      i: 3
    }
  }
}
node {
  name: "linear/head/assert_range/assert_less/Assert/AssertGuard/control_dependency_1"
  op: "Identity"
  input: "linear/head/assert_range/assert_less/Assert/AssertGuard/switch_f"
  input: "^linear/head/assert_range/assert_less/Assert/AssertGuard/Assert"
  attr {
    key: "T"
    value {
      type: DT_BOOL
    }
  }
  attr {
    key: "_class"
    value {
      list {
        s: "loc:@linear/head/assert_range/assert_less/Assert/AssertGuard/switch_f"
      }
    }
  }
  attr {
    key: "_output_shapes"
    value {
      list {
        shape {
          unknown_rank: true
        }
      }
    }
  }
}
node {
  name: "linear/head/assert_range/assert_less/Assert/AssertGuard/Merge"
  op: "Merge"
  input: "linear/head/assert_range/assert_less/Assert/AssertGuard/control_dependency_1"
  input: "linear/head/assert_range/assert_less/Assert/AssertGuard/control_dependency"
  attr {
    key: "N"
    value {
      i: 2
    }
  }
  attr {
    key: "T"
    value {
      type: DT_BOOL
    }
  }
  attr {
    key: "_output_shapes"
    value {
      list {
        shape {
          unknown_rank: true
        }
        shape {
        }
      }
    }
  }
}
node {
  name: "linear/head/assert_range/assert_non_negative/Const"
  op: "Const"
  input: "^add"
  attr {
    key: "_output_shapes"
    value {
      list {
        shape {
        }
      }
    }
  }
  attr {
    key: "dtype"
    value {
      type: DT_FLOAT
    }
  }
  attr {
    key: "value"
    value {
      tensor {
        dtype: DT_FLOAT
        tensor_shape {
        }
        float_val: 0.0
      }
    }
  }
}
node {
  name: "linear/head/assert_range/assert_non_negative/assert_less_equal/LessEqual"
  op: "LessEqual"
  input: "linear/head/assert_range/assert_non_negative/Const"
  input: "linear/head/labels"
  attr {
    key: "T"
    value {
      type: DT_FLOAT
    }
  }
  attr {
    key: "_output_shapes"
    value {
      list {
        shape {
          unknown_rank: true
        }
      }
    }
  }
}
node {
  name: "linear/head/assert_range/assert_non_negative/assert_less_equal/Rank"
  op: "Rank"
  input: "linear/head/assert_range/assert_non_negative/assert_less_equal/LessEqual"
  attr {
    key: "T"
    value {
      type: DT_BOOL
    }
  }
  attr {
    key: "_output_shapes"
    value {
      list {
        shape {
        }
      }
    }
  }
}
node {
  name: "linear/head/assert_range/assert_non_negative/assert_less_equal/range/start"
  op: "Const"
  input: "^add"
  attr {
    key: "_output_shapes"
    value {
      list {
        shape {
        }
      }
    }
  }
  attr {
    key: "dtype"
    value {
      type: DT_INT32
    }
  }
  attr {
    key: "value"
    value {
      tensor {
        dtype: DT_INT32
        tensor_shape {
        }
        int_val: 0
      }
    }
  }
}
node {
  name: "linear/head/assert_range/assert_non_negative/assert_less_equal/range/delta"
  op: "Const"
  input: "^add"
  attr {
    key: "_output_shapes"
    value {
      list {
        shape {
        }
      }
    }
  }
  attr {
    key: "dtype"
    value {
      type: DT_INT32
    }
  }
  attr {
    key: "value"
    value {
      tensor {
        dtype: DT_INT32
        tensor_shape {
        }
        int_val: 1
      }
    }
  }
}
node {
  name: "linear/head/assert_range/assert_non_negative/assert_less_equal/range"
  op: "Range"
  input: "linear/head/assert_range/assert_non_negative/assert_less_equal/range/start"
  input: "linear/head/assert_range/assert_non_negative/assert_less_equal/Rank"
  input: "linear/head/assert_range/assert_non_negative/assert_less_equal/range/delta"
  attr {
    key: "Tidx"
    value {
      type: DT_INT32
    }
  }
  attr {
    key: "_output_shapes"
    value {
      list {
        shape {
          dim {
            size: -1
          }
        }
      }
    }
  }
}
node {
  name: "linear/head/assert_range/assert_non_negative/assert_less_equal/All"
  op: "All"
  input: "linear/head/assert_range/assert_non_negative/assert_less_equal/LessEqual"
  input: "linear/head/assert_range/assert_non_negative/assert_less_equal/range"
  attr {
    key: "Tidx"
    value {
      type: DT_INT32
    }
  }
  attr {
    key: "_output_shapes"
    value {
      list {
        shape {
          unknown_rank: true
        }
      }
    }
  }
  attr {
    key: "keep_dims"
    value {
      b: false
    }
  }
}
node {
  name: "linear/head/assert_range/assert_non_negative/assert_less_equal/Assert/Const"
  op: "Const"
  input: "^add"
  attr {
    key: "_output_shapes"
    value {
      list {
        shape {
        }
      }
    }
  }
  attr {
    key: "dtype"
    value {
      type: DT_STRING
    }
  }
  attr {
    key: "value"
    value {
      tensor {
        dtype: DT_STRING
        tensor_shape {
        }
        string_val: "Label IDs must >= 0"
      }
    }
  }
}
node {
  name: "linear/head/assert_range/assert_non_negative/assert_less_equal/Assert/Const_1"
  op: "Const"
  input: "^add"
  attr {
    key: "_output_shapes"
    value {
      list {
        shape {
        }
      }
    }
  }
  attr {
    key: "dtype"
    value {
      type: DT_STRING
    }
  }
  attr {
    key: "value"
    value {
      tensor {
        dtype: DT_STRING
        tensor_shape {
        }
        string_val: "Condition x >= 0 did not hold element-wise:"
      }
    }
  }
}
node {
  name: "linear/head/assert_range/assert_non_negative/assert_less_equal/Assert/Const_2"
  op: "Const"
  input: "^add"
  attr {
    key: "_output_shapes"
    value {
      list {
        shape {
        }
      }
    }
  }
  attr {
    key: "dtype"
    value {
      type: DT_STRING
    }
  }
  attr {
    key: "value"
    value {
      tensor {
        dtype: DT_STRING
        tensor_shape {
        }
        string_val: "x (linear/head/labels:0) = "
      }
    }
  }
}
node {
  name: "linear/head/assert_range/assert_non_negative/assert_less_equal/Assert/AssertGuard/Switch"
  op: "Switch"
  input: "linear/head/assert_range/assert_non_negative/assert_less_equal/All"
  input: "linear/head/assert_range/assert_non_negative/assert_less_equal/All"
  attr {
    key: "T"
    value {
      type: DT_BOOL
    }
  }
  attr {
    key: "_output_shapes"
    value {
      list {
        shape {
          unknown_rank: true
        }
        shape {
          unknown_rank: true
        }
      }
    }
  }
}
node {
  name: "linear/head/assert_range/assert_non_negative/assert_less_equal/Assert/AssertGuard/switch_t"
  op: "Identity"
  input: "linear/head/assert_range/assert_non_negative/assert_less_equal/Assert/AssertGuard/Switch:1"
  attr {
    key: "T"
    value {
      type: DT_BOOL
    }
  }
  attr {
    key: "_output_shapes"
    value {
      list {
        shape {
          unknown_rank: true
        }
      }
    }
  }
}
node {
  name: "linear/head/assert_range/assert_non_negative/assert_less_equal/Assert/AssertGuard/switch_f"
  op: "Identity"
  input: "linear/head/assert_range/assert_non_negative/assert_less_equal/Assert/AssertGuard/Switch"
  attr {
    key: "T"
    value {
      type: DT_BOOL
    }
  }
  attr {
    key: "_output_shapes"
    value {
      list {
        shape {
          unknown_rank: true
        }
      }
    }
  }
}
node {
  name: "linear/head/assert_range/assert_non_negative/assert_less_equal/Assert/AssertGuard/pred_id"
  op: "Identity"
  input: "linear/head/assert_range/assert_non_negative/assert_less_equal/All"
  attr {
    key: "T"
    value {
      type: DT_BOOL
    }
  }
  attr {
    key: "_output_shapes"
    value {
      list {
        shape {
          unknown_rank: true
        }
      }
    }
  }
}
node {
  name: "linear/head/assert_range/assert_non_negative/assert_less_equal/Assert/AssertGuard/NoOp"
  op: "NoOp"
  input: "^add"
  input: "^linear/head/assert_range/assert_non_negative/assert_less_equal/Assert/AssertGuard/switch_t"
}
node {
  name: "linear/head/assert_range/assert_non_negative/assert_less_equal/Assert/AssertGuard/control_dependency"
  op: "Identity"
  input: "linear/head/assert_range/assert_non_negative/assert_less_equal/Assert/AssertGuard/switch_t"
  input: "^linear/head/assert_range/assert_non_negative/assert_less_equal/Assert/AssertGuard/NoOp"
  attr {
    key: "T"
    value {
      type: DT_BOOL
    }
  }
  attr {
    key: "_class"
    value {
      list {
        s: "loc:@linear/head/assert_range/assert_non_negative/assert_less_equal/Assert/AssertGuard/switch_t"
      }
    }
  }
  attr {
    key: "_output_shapes"
    value {
      list {
        shape {
          unknown_rank: true
        }
      }
    }
  }
}
node {
  name: "linear/head/assert_range/assert_non_negative/assert_less_equal/Assert/AssertGuard/Assert/data_0"
  op: "Const"
  input: "^add"
  input: "^linear/head/assert_range/assert_non_negative/assert_less_equal/Assert/AssertGuard/switch_f"
  attr {
    key: "_output_shapes"
    value {
      list {
        shape {
        }
      }
    }
  }
  attr {
    key: "dtype"
    value {
      type: DT_STRING
    }
  }
  attr {
    key: "value"
    value {
      tensor {
        dtype: DT_STRING
        tensor_shape {
        }
        string_val: "Label IDs must >= 0"
      }
    }
  }
}
node {
  name: "linear/head/assert_range/assert_non_negative/assert_less_equal/Assert/AssertGuard/Assert/data_1"
  op: "Const"
  input: "^add"
  input: "^linear/head/assert_range/assert_non_negative/assert_less_equal/Assert/AssertGuard/switch_f"
  attr {
    key: "_output_shapes"
    value {
      list {
        shape {
        }
      }
    }
  }
  attr {
    key: "dtype"
    value {
      type: DT_STRING
    }
  }
  attr {
    key: "value"
    value {
      tensor {
        dtype: DT_STRING
        tensor_shape {
        }
        string_val: "Condition x >= 0 did not hold element-wise:"
      }
    }
  }
}
node {
  name: "linear/head/assert_range/assert_non_negative/assert_less_equal/Assert/AssertGuard/Assert/data_2"
  op: "Const"
  input: "^add"
  input: "^linear/head/assert_range/assert_non_negative/assert_less_equal/Assert/AssertGuard/switch_f"
  attr {
    key: "_output_shapes"
    value {
      list {
        shape {
        }
      }
    }
  }
  attr {
    key: "dtype"
    value {
      type: DT_STRING
    }
  }
  attr {
    key: "value"
    value {
      tensor {
        dtype: DT_STRING
        tensor_shape {
        }
        string_val: "x (linear/head/labels:0) = "
      }
    }
  }
}
node {
  name: "linear/head/assert_range/assert_non_negative/assert_less_equal/Assert/AssertGuard/Assert/Switch"
  op: "Switch"
  input: "linear/head/assert_range/assert_non_negative/assert_less_equal/All"
  input: "linear/head/assert_range/assert_non_negative/assert_less_equal/Assert/AssertGuard/pred_id"
  attr {
    key: "T"
    value {
      type: DT_BOOL
    }
  }
  attr {
    key: "_class"
    value {
      list {
        s: "loc:@linear/head/assert_range/assert_non_negative/assert_less_equal/All"
      }
    }
  }
  attr {
    key: "_output_shapes"
    value {
      list {
        shape {
          unknown_rank: true
        }
        shape {
          unknown_rank: true
        }
      }
    }
  }
}
node {
  name: "linear/head/assert_range/assert_non_negative/assert_less_equal/Assert/AssertGuard/Assert/Switch_1"
  op: "Switch"
  input: "linear/head/labels"
  input: "linear/head/assert_range/assert_non_negative/assert_less_equal/Assert/AssertGuard/pred_id"
  attr {
    key: "T"
    value {
      type: DT_FLOAT
    }
  }
  attr {
    key: "_class"
    value {
      list {
        s: "loc:@linear/head/labels"
      }
    }
  }
  attr {
    key: "_output_shapes"
    value {
      list {
        shape {
          unknown_rank: true
        }
        shape {
          unknown_rank: true
        }
      }
    }
  }
}
node {
  name: "linear/head/assert_range/assert_non_negative/assert_less_equal/Assert/AssertGuard/Assert"
  op: "Assert"
  input: "linear/head/assert_range/assert_non_negative/assert_less_equal/Assert/AssertGuard/Assert/Switch"
  input: "linear/head/assert_range/assert_non_negative/assert_less_equal/Assert/AssertGuard/Assert/data_0"
  input: "linear/head/assert_range/assert_non_negative/assert_less_equal/Assert/AssertGuard/Assert/data_1"
  input: "linear/head/assert_range/assert_non_negative/assert_less_equal/Assert/AssertGuard/Assert/data_2"
  input: "linear/head/assert_range/assert_non_negative/assert_less_equal/Assert/AssertGuard/Assert/Switch_1"
  attr {
    key: "T"
    value {
      list {
        type: DT_STRING
        type: DT_STRING
        type: DT_STRING
        type: DT_FLOAT
      }
    }
  }
  attr {
    key: "summarize"
    value {
      i: 3
    }
  }
}
node {
  name: "linear/head/assert_range/assert_non_negative/assert_less_equal/Assert/AssertGuard/control_dependency_1"
  op: "Identity"
  input: "linear/head/assert_range/assert_non_negative/assert_less_equal/Assert/AssertGuard/switch_f"
  input: "^linear/head/assert_range/assert_non_negative/assert_less_equal/Assert/AssertGuard/Assert"
  attr {
    key: "T"
    value {
      type: DT_BOOL
    }
  }
  attr {
    key: "_class"
    value {
      list {
        s: "loc:@linear/head/assert_range/assert_non_negative/assert_less_equal/Assert/AssertGuard/switch_f"
      }
    }
  }
  attr {
    key: "_output_shapes"
    value {
      list {
        shape {
          unknown_rank: true
        }
      }
    }
  }
}
node {
  name: "linear/head/assert_range/assert_non_negative/assert_less_equal/Assert/AssertGuard/Merge"
  op: "Merge"
  input: "linear/head/assert_range/assert_non_negative/assert_less_equal/Assert/AssertGuard/control_dependency_1"
  input: "linear/head/assert_range/assert_non_negative/assert_less_equal/Assert/AssertGuard/control_dependency"
  attr {
    key: "N"
    value {
      i: 2
    }
  }
  attr {
    key: "T"
    value {
      type: DT_BOOL
    }
  }
  attr {
    key: "_output_shapes"
    value {
      list {
        shape {
          unknown_rank: true
        }
        shape {
        }
      }
    }
  }
}
node {
  name: "linear/head/assert_range/Identity"
  op: "Identity"
  input: "linear/head/labels"
  input: "^linear/head/assert_range/assert_less/Assert/AssertGuard/Merge"
  input: "^linear/head/assert_range/assert_non_negative/assert_less_equal/Assert/AssertGuard/Merge"
  attr {
    key: "T"
    value {
      type: DT_FLOAT
    }
  }
  attr {
    key: "_output_shapes"
    value {
      list {
        shape {
          unknown_rank: true
        }
      }
    }
  }
}
node {
  name: "linear/head/logistic_loss/zeros_like"
  op: "ZerosLike"
  input: "linear/head/predictions/logits"
  attr {
    key: "T"
    value {
      type: DT_FLOAT
    }
  }
  attr {
    key: "_output_shapes"
    value {
      list {
        shape {
          dim {
            size: -1
          }
          dim {
            size: 1
          }
        }
      }
    }
  }
}
node {
  name: "linear/head/logistic_loss/GreaterEqual"
  op: "GreaterEqual"
  input: "linear/head/predictions/logits"
  input: "linear/head/logistic_loss/zeros_like"
  attr {
    key: "T"
    value {
      type: DT_FLOAT
    }
  }
  attr {
    key: "_output_shapes"
    value {
      list {
        shape {
          dim {
            size: -1
          }
          dim {
            size: 1
          }
        }
      }
    }
  }
}
node {
  name: "linear/head/logistic_loss/Select"
  op: "Select"
  input: "linear/head/logistic_loss/GreaterEqual"
  input: "linear/head/predictions/logits"
  input: "linear/head/logistic_loss/zeros_like"
  attr {
    key: "T"
    value {
      type: DT_FLOAT
    }
  }
  attr {
    key: "_output_shapes"
    value {
      list {
        shape {
          dim {
            size: -1
          }
          dim {
            size: 1
          }
        }
      }
    }
  }
}
node {
  name: "linear/head/logistic_loss/Neg"
  op: "Neg"
  input: "linear/head/predictions/logits"
  attr {
    key: "T"
    value {
      type: DT_FLOAT
    }
  }
  attr {
    key: "_output_shapes"
    value {
      list {
        shape {
          dim {
            size: -1
          }
          dim {
            size: 1
          }
        }
      }
    }
  }
}
node {
  name: "linear/head/logistic_loss/Select_1"
  op: "Select"
  input: "linear/head/logistic_loss/GreaterEqual"
  input: "linear/head/logistic_loss/Neg"
  input: "linear/head/predictions/logits"
  attr {
    key: "T"
    value {
      type: DT_FLOAT
    }
  }
  attr {
    key: "_output_shapes"
    value {
      list {
        shape {
          dim {
            size: -1
          }
          dim {
            size: 1
          }
        }
      }
    }
  }
}
node {
  name: "linear/head/logistic_loss/mul"
  op: "Mul"
  input: "linear/head/predictions/logits"
  input: "linear/head/assert_range/Identity"
  attr {
    key: "T"
    value {
      type: DT_FLOAT
    }
  }
  attr {
    key: "_output_shapes"
    value {
      list {
        shape {
          unknown_rank: true
        }
      }
    }
  }
}
node {
  name: "linear/head/logistic_loss/sub"
  op: "Sub"
  input: "linear/head/logistic_loss/Select"
  input: "linear/head/logistic_loss/mul"
  attr {
    key: "T"
    value {
      type: DT_FLOAT
    }
  }
  attr {
    key: "_output_shapes"
    value {
      list {
        shape {
          unknown_rank: true
        }
      }
    }
  }
}
node {
  name: "linear/head/logistic_loss/Exp"
  op: "Exp"
  input: "linear/head/logistic_loss/Select_1"
  attr {
    key: "T"
    value {
      type: DT_FLOAT
    }
  }
  attr {
    key: "_output_shapes"
    value {
      list {
        shape {
          dim {
            size: -1
          }
          dim {
            size: 1
          }
        }
      }
    }
  }
}
node {
  name: "linear/head/logistic_loss/Log1p"
  op: "Log1p"
  input: "linear/head/logistic_loss/Exp"
  attr {
    key: "T"
    value {
      type: DT_FLOAT
    }
  }
  attr {
    key: "_output_shapes"
    value {
      list {
        shape {
          dim {
            size: -1
          }
          dim {
            size: 1
          }
        }
      }
    }
  }
}
node {
  name: "linear/head/logistic_loss"
  op: "Add"
  input: "linear/head/logistic_loss/sub"
  input: "linear/head/logistic_loss/Log1p"
  attr {
    key: "T"
    value {
      type: DT_FLOAT
    }
  }
  attr {
    key: "_output_shapes"
    value {
      list {
        shape {
          unknown_rank: true
        }
      }
    }
  }
}
node {
  name: "linear/head/weighted_loss/assert_broadcastable/weights"
  op: "Const"
  input: "^add"
  attr {
    key: "_output_shapes"
    value {
      list {
        shape {
        }
      }
    }
  }
  attr {
    key: "dtype"
    value {
      type: DT_FLOAT
    }
  }
  attr {
    key: "value"
    value {
      tensor {
        dtype: DT_FLOAT
        tensor_shape {
        }
        float_val: 1.0
      }
    }
  }
}
node {
  name: "linear/head/weighted_loss/assert_broadcastable/weights/shape"
  op: "Const"
  input: "^add"
  attr {
    key: "_output_shapes"
    value {
      list {
        shape {
          dim {
          }
        }
      }
    }
  }
  attr {
    key: "dtype"
    value {
      type: DT_INT32
    }
  }
  attr {
    key: "value"
    value {
      tensor {
        dtype: DT_INT32
        tensor_shape {
          dim {
          }
        }
      }
    }
  }
}
node {
  name: "linear/head/weighted_loss/assert_broadcastable/weights/rank"
  op: "Const"
  input: "^add"
  attr {
    key: "_output_shapes"
    value {
      list {
        shape {
        }
      }
    }
  }
  attr {
    key: "dtype"
    value {
      type: DT_INT32
    }
  }
  attr {
    key: "value"
    value {
      tensor {
        dtype: DT_INT32
        tensor_shape {
        }
        int_val: 0
      }
    }
  }
}
node {
  name: "linear/head/weighted_loss/assert_broadcastable/values/shape"
  op: "Shape"
  input: "linear/head/logistic_loss"
  attr {
    key: "T"
    value {
      type: DT_FLOAT
    }
  }
  attr {
    key: "_output_shapes"
    value {
      list {
        shape {
          dim {
            size: -1
          }
        }
      }
    }
  }
  attr {
    key: "out_type"
    value {
      type: DT_INT32
    }
  }
}
node {
  name: "linear/head/weighted_loss/assert_broadcastable/values/rank"
  op: "Rank"
  input: "linear/head/logistic_loss"
  attr {
    key: "T"
    value {
      type: DT_FLOAT
    }
  }
  attr {
    key: "_output_shapes"
    value {
      list {
        shape {
        }
      }
    }
  }
}
node {
  name: "linear/head/weighted_loss/assert_broadcastable/is_scalar/x"
  op: "Const"
  input: "^add"
  attr {
    key: "_output_shapes"
    value {
      list {
        shape {
        }
      }
    }
  }
  attr {
    key: "dtype"
    value {
      type: DT_INT32
    }
  }
  attr {
    key: "value"
    value {
      tensor {
        dtype: DT_INT32
        tensor_shape {
        }
        int_val: 0
      }
    }
  }
}
node {
  name: "linear/head/weighted_loss/assert_broadcastable/is_scalar"
  op: "Equal"
  input: "linear/head/weighted_loss/assert_broadcastable/is_scalar/x"
  input: "linear/head/weighted_loss/assert_broadcastable/weights/rank"
  attr {
    key: "T"
    value {
      type: DT_INT32
    }
  }
  attr {
    key: "_output_shapes"
    value {
      list {
        shape {
        }
      }
    }
  }
}
node {
  name: "linear/head/weighted_loss/assert_broadcastable/is_valid_shape/Switch"
  op: "Switch"
  input: "linear/head/weighted_loss/assert_broadcastable/is_scalar"
  input: "linear/head/weighted_loss/assert_broadcastable/is_scalar"
  attr {
    key: "T"
    value {
      type: DT_BOOL
    }
  }
  attr {
    key: "_output_shapes"
    value {
      list {
        shape {
        }
        shape {
        }
      }
    }
  }
}
node {
  name: "linear/head/weighted_loss/assert_broadcastable/is_valid_shape/switch_t"
  op: "Identity"
  input: "linear/head/weighted_loss/assert_broadcastable/is_valid_shape/Switch:1"
  attr {
    key: "T"
    value {
      type: DT_BOOL
    }
  }
  attr {
    key: "_output_shapes"
    value {
      list {
        shape {
        }
      }
    }
  }
}
node {
  name: "linear/head/weighted_loss/assert_broadcastable/is_valid_shape/switch_f"
  op: "Identity"
  input: "linear/head/weighted_loss/assert_broadcastable/is_valid_shape/Switch"
  attr {
    key: "T"
    value {
      type: DT_BOOL
    }
  }
  attr {
    key: "_output_shapes"
    value {
      list {
        shape {
        }
      }
    }
  }
}
node {
  name: "linear/head/weighted_loss/assert_broadcastable/is_valid_shape/pred_id"
  op: "Identity"
  input: "linear/head/weighted_loss/assert_broadcastable/is_scalar"
  attr {
    key: "T"
    value {
      type: DT_BOOL
    }
  }
  attr {
    key: "_output_shapes"
    value {
      list {
        shape {
        }
      }
    }
  }
}
node {
  name: "linear/head/weighted_loss/assert_broadcastable/is_valid_shape/Switch_1"
  op: "Switch"
  input: "linear/head/weighted_loss/assert_broadcastable/is_scalar"
  input: "linear/head/weighted_loss/assert_broadcastable/is_valid_shape/pred_id"
  attr {
    key: "T"
    value {
      type: DT_BOOL
    }
  }
  attr {
    key: "_class"
    value {
      list {
        s: "loc:@linear/head/weighted_loss/assert_broadcastable/is_scalar"
      }
    }
  }
  attr {
    key: "_output_shapes"
    value {
      list {
        shape {
        }
        shape {
        }
      }
    }
  }
}
node {
  name: "linear/head/weighted_loss/assert_broadcastable/is_valid_shape/has_valid_nonscalar_shape/is_same_rank/Switch"
  op: "Switch"
  input: "linear/head/weighted_loss/assert_broadcastable/values/rank"
  input: "linear/head/weighted_loss/assert_broadcastable/is_valid_shape/pred_id"
  attr {
    key: "T"
    value {
      type: DT_INT32
    }
  }
  attr {
    key: "_class"
    value {
      list {
        s: "loc:@linear/head/weighted_loss/assert_broadcastable/values/rank"
      }
    }
  }
  attr {
    key: "_output_shapes"
    value {
      list {
        shape {
        }
        shape {
        }
      }
    }
  }
}
node {
  name: "linear/head/weighted_loss/assert_broadcastable/is_valid_shape/has_valid_nonscalar_shape/is_same_rank/Switch_1"
  op: "Switch"
  input: "linear/head/weighted_loss/assert_broadcastable/weights/rank"
  input: "linear/head/weighted_loss/assert_broadcastable/is_valid_shape/pred_id"
  attr {
    key: "T"
    value {
      type: DT_INT32
    }
  }
  attr {
    key: "_class"
    value {
      list {
        s: "loc:@linear/head/weighted_loss/assert_broadcastable/weights/rank"
      }
    }
  }
  attr {
    key: "_output_shapes"
    value {
      list {
        shape {
        }
        shape {
        }
      }
    }
  }
}
node {
  name: "linear/head/weighted_loss/assert_broadcastable/is_valid_shape/has_valid_nonscalar_shape/is_same_rank"
  op: "Equal"
  input: "linear/head/weighted_loss/assert_broadcastable/is_valid_shape/has_valid_nonscalar_shape/is_same_rank/Switch"
  input: "linear/head/weighted_loss/assert_broadcastable/is_valid_shape/has_valid_nonscalar_shape/is_same_rank/Switch_1"
  attr {
    key: "T"
    value {
      type: DT_INT32
    }
  }
  attr {
    key: "_output_shapes"
    value {
      list {
        shape {
        }
      }
    }
  }
}
node {
  name: "linear/head/weighted_loss/assert_broadcastable/is_valid_shape/has_valid_nonscalar_shape/Switch"
  op: "Switch"
  input: "linear/head/weighted_loss/assert_broadcastable/is_valid_shape/has_valid_nonscalar_shape/is_same_rank"
  input: "linear/head/weighted_loss/assert_broadcastable/is_valid_shape/has_valid_nonscalar_shape/is_same_rank"
  attr {
    key: "T"
    value {
      type: DT_BOOL
    }
  }
  attr {
    key: "_output_shapes"
    value {
      list {
        shape {
        }
        shape {
        }
      }
    }
  }
}
node {
  name: "linear/head/weighted_loss/assert_broadcastable/is_valid_shape/has_valid_nonscalar_shape/switch_t"
  op: "Identity"
  input: "linear/head/weighted_loss/assert_broadcastable/is_valid_shape/has_valid_nonscalar_shape/Switch:1"
  attr {
    key: "T"
    value {
      type: DT_BOOL
    }
  }
  attr {
    key: "_output_shapes"
    value {
      list {
        shape {
        }
      }
    }
  }
}
node {
  name: "linear/head/weighted_loss/assert_broadcastable/is_valid_shape/has_valid_nonscalar_shape/switch_f"
  op: "Identity"
  input: "linear/head/weighted_loss/assert_broadcastable/is_valid_shape/has_valid_nonscalar_shape/Switch"
  attr {
    key: "T"
    value {
      type: DT_BOOL
    }
  }
  attr {
    key: "_output_shapes"
    value {
      list {
        shape {
        }
      }
    }
  }
}
node {
  name: "linear/head/weighted_loss/assert_broadcastable/is_valid_shape/has_valid_nonscalar_shape/pred_id"
  op: "Identity"
  input: "linear/head/weighted_loss/assert_broadcastable/is_valid_shape/has_valid_nonscalar_shape/is_same_rank"
  attr {
    key: "T"
    value {
      type: DT_BOOL
    }
  }
  attr {
    key: "_output_shapes"
    value {
      list {
        shape {
        }
      }
    }
  }
}
node {
  name: "linear/head/weighted_loss/assert_broadcastable/is_valid_shape/has_valid_nonscalar_shape/has_invalid_dims/ExpandDims/dim"
  op: "Const"
  input: "^add"
  input: "^linear/head/weighted_loss/assert_broadcastable/is_valid_shape/has_valid_nonscalar_shape/switch_t"
  attr {
    key: "_output_shapes"
    value {
      list {
        shape {
        }
      }
    }
  }
  attr {
    key: "dtype"
    value {
      type: DT_INT32
    }
  }
  attr {
    key: "value"
    value {
      tensor {
        dtype: DT_INT32
        tensor_shape {
        }
        int_val: -1
      }
    }
  }
}
node {
  name: "linear/head/weighted_loss/assert_broadcastable/is_valid_shape/has_valid_nonscalar_shape/has_invalid_dims/ExpandDims/Switch"
  op: "Switch"
  input: "linear/head/weighted_loss/assert_broadcastable/values/shape"
  input: "linear/head/weighted_loss/assert_broadcastable/is_valid_shape/pred_id"
  attr {
    key: "T"
    value {
      type: DT_INT32
    }
  }
  attr {
    key: "_class"
    value {
      list {
        s: "loc:@linear/head/weighted_loss/assert_broadcastable/values/shape"
      }
    }
  }
  attr {
    key: "_output_shapes"
    value {
      list {
        shape {
          dim {
            size: -1
          }
        }
        shape {
          dim {
            size: -1
          }
        }
      }
    }
  }
}
node {
  name: "linear/head/weighted_loss/assert_broadcastable/is_valid_shape/has_valid_nonscalar_shape/has_invalid_dims/ExpandDims/Switch_1"
  op: "Switch"
  input: "linear/head/weighted_loss/assert_broadcastable/is_valid_shape/has_valid_nonscalar_shape/has_invalid_dims/ExpandDims/Switch"
  input: "linear/head/weighted_loss/assert_broadcastable/is_valid_shape/has_valid_nonscalar_shape/pred_id"
  attr {
    key: "T"
    value {
      type: DT_INT32
    }
  }
  attr {
    key: "_class"
    value {
      list {
        s: "loc:@linear/head/weighted_loss/assert_broadcastable/values/shape"
      }
    }
  }
  attr {
    key: "_output_shapes"
    value {
      list {
        shape {
          dim {
            size: -1
          }
        }
        shape {
          dim {
            size: -1
          }
        }
      }
    }
  }
}
node {
  name: "linear/head/weighted_loss/assert_broadcastable/is_valid_shape/has_valid_nonscalar_shape/has_invalid_dims/ExpandDims"
  op: "ExpandDims"
  input: "linear/head/weighted_loss/assert_broadcastable/is_valid_shape/has_valid_nonscalar_shape/has_invalid_dims/ExpandDims/Switch_1:1"
  input: "linear/head/weighted_loss/assert_broadcastable/is_valid_shape/has_valid_nonscalar_shape/has_invalid_dims/ExpandDims/dim"
  attr {
    key: "T"
    value {
      type: DT_INT32
    }
  }
  attr {
    key: "Tdim"
    value {
      type: DT_INT32
    }
  }
  attr {
    key: "_output_shapes"
    value {
      list {
        shape {
          dim {
            size: -1
          }
          dim {
            size: 1
          }
        }
      }
    }
  }
}
node {
  name: "linear/head/weighted_loss/assert_broadcastable/is_valid_shape/has_valid_nonscalar_shape/has_invalid_dims/ones_like/Shape"
  op: "Shape"
  input: "linear/head/weighted_loss/assert_broadcastable/is_valid_shape/has_valid_nonscalar_shape/has_invalid_dims/ExpandDims"
  attr {
    key: "T"
    value {
      type: DT_INT32
    }
  }
  attr {
    key: "_output_shapes"
    value {
      list {
        shape {
          dim {
            size: 2
          }
        }
      }
    }
  }
  attr {
    key: "out_type"
    value {
      type: DT_INT32
    }
  }
}
node {
  name: "linear/head/weighted_loss/assert_broadcastable/is_valid_shape/has_valid_nonscalar_shape/has_invalid_dims/ones_like/Const"
  op: "Const"
  input: "^add"
  input: "^linear/head/weighted_loss/assert_broadcastable/is_valid_shape/has_valid_nonscalar_shape/switch_t"
  attr {
    key: "_output_shapes"
    value {
      list {
        shape {
        }
      }
    }
  }
  attr {
    key: "dtype"
    value {
      type: DT_INT32
    }
  }
  attr {
    key: "value"
    value {
      tensor {
        dtype: DT_INT32
        tensor_shape {
        }
        int_val: 1
      }
    }
  }
}
node {
  name: "linear/head/weighted_loss/assert_broadcastable/is_valid_shape/has_valid_nonscalar_shape/has_invalid_dims/ones_like"
  op: "Fill"
  input: "linear/head/weighted_loss/assert_broadcastable/is_valid_shape/has_valid_nonscalar_shape/has_invalid_dims/ones_like/Shape"
  input: "linear/head/weighted_loss/assert_broadcastable/is_valid_shape/has_valid_nonscalar_shape/has_invalid_dims/ones_like/Const"
  attr {
    key: "T"
    value {
      type: DT_INT32
    }
  }
  attr {
    key: "_output_shapes"
    value {
      list {
        shape {
          dim {
            size: -1
          }
          dim {
            size: 1
          }
        }
      }
    }
  }
}
node {
  name: "linear/head/weighted_loss/assert_broadcastable/is_valid_shape/has_valid_nonscalar_shape/has_invalid_dims/concat/axis"
  op: "Const"
  input: "^add"
  input: "^linear/head/weighted_loss/assert_broadcastable/is_valid_shape/has_valid_nonscalar_shape/switch_t"
  attr {
    key: "_output_shapes"
    value {
      list {
        shape {
        }
      }
    }
  }
  attr {
    key: "dtype"
    value {
      type: DT_INT32
    }
  }
  attr {
    key: "value"
    value {
      tensor {
        dtype: DT_INT32
        tensor_shape {
        }
        int_val: 1
      }
    }
  }
}
node {
  name: "linear/head/weighted_loss/assert_broadcastable/is_valid_shape/has_valid_nonscalar_shape/has_invalid_dims/concat"
  op: "ConcatV2"
  input: "linear/head/weighted_loss/assert_broadcastable/is_valid_shape/has_valid_nonscalar_shape/has_invalid_dims/ExpandDims"
  input: "linear/head/weighted_loss/assert_broadcastable/is_valid_shape/has_valid_nonscalar_shape/has_invalid_dims/ones_like"
  input: "linear/head/weighted_loss/assert_broadcastable/is_valid_shape/has_valid_nonscalar_shape/has_invalid_dims/concat/axis"
  attr {
    key: "N"
    value {
      i: 2
    }
  }
  attr {
    key: "T"
    value {
      type: DT_INT32
    }
  }
  attr {
    key: "Tidx"
    value {
      type: DT_INT32
    }
  }
  attr {
    key: "_output_shapes"
    value {
      list {
        shape {
          dim {
            size: -1
          }
          dim {
            size: 2
          }
        }
      }
    }
  }
}
node {
  name: "linear/head/weighted_loss/assert_broadcastable/is_valid_shape/has_valid_nonscalar_shape/has_invalid_dims/ExpandDims_1/dim"
  op: "Const"
  input: "^add"
  input: "^linear/head/weighted_loss/assert_broadcastable/is_valid_shape/has_valid_nonscalar_shape/switch_t"
  attr {
    key: "_output_shapes"
    value {
      list {
        shape {
        }
      }
    }
  }
  attr {
    key: "dtype"
    value {
      type: DT_INT32
    }
  }
  attr {
    key: "value"
    value {
      tensor {
        dtype: DT_INT32
        tensor_shape {
        }
        int_val: -1
      }
    }
  }
}
node {
  name: "linear/head/weighted_loss/assert_broadcastable/is_valid_shape/has_valid_nonscalar_shape/has_invalid_dims/ExpandDims_1/Switch"
  op: "Switch"
  input: "linear/head/weighted_loss/assert_broadcastable/weights/shape"
  input: "linear/head/weighted_loss/assert_broadcastable/is_valid_shape/pred_id"
  attr {
    key: "T"
    value {
      type: DT_INT32
    }
  }
  attr {
    key: "_class"
    value {
      list {
        s: "loc:@linear/head/weighted_loss/assert_broadcastable/weights/shape"
      }
    }
  }
  attr {
    key: "_output_shapes"
    value {
      list {
        shape {
          dim {
          }
        }
        shape {
          dim {
          }
        }
      }
    }
  }
}
node {
  name: "linear/head/weighted_loss/assert_broadcastable/is_valid_shape/has_valid_nonscalar_shape/has_invalid_dims/ExpandDims_1/Switch_1"
  op: "Switch"
  input: "linear/head/weighted_loss/assert_broadcastable/is_valid_shape/has_valid_nonscalar_shape/has_invalid_dims/ExpandDims_1/Switch"
  input: "linear/head/weighted_loss/assert_broadcastable/is_valid_shape/has_valid_nonscalar_shape/pred_id"
  attr {
    key: "T"
    value {
      type: DT_INT32
    }
  }
  attr {
    key: "_class"
    value {
      list {
        s: "loc:@linear/head/weighted_loss/assert_broadcastable/weights/shape"
      }
    }
  }
  attr {
    key: "_output_shapes"
    value {
      list {
        shape {
          dim {
          }
        }
        shape {
          dim {
          }
        }
      }
    }
  }
}
node {
  name: "linear/head/weighted_loss/assert_broadcastable/is_valid_shape/has_valid_nonscalar_shape/has_invalid_dims/ExpandDims_1"
  op: "ExpandDims"
  input: "linear/head/weighted_loss/assert_broadcastable/is_valid_shape/has_valid_nonscalar_shape/has_invalid_dims/ExpandDims_1/Switch_1:1"
  input: "linear/head/weighted_loss/assert_broadcastable/is_valid_shape/has_valid_nonscalar_shape/has_invalid_dims/ExpandDims_1/dim"
  attr {
    key: "T"
    value {
      type: DT_INT32
    }
  }
  attr {
    key: "Tdim"
    value {
      type: DT_INT32
    }
  }
  attr {
    key: "_output_shapes"
    value {
      list {
        shape {
          dim {
          }
          dim {
            size: 1
          }
        }
      }
    }
  }
}
node {
  name: "linear/head/weighted_loss/assert_broadcastable/is_valid_shape/has_valid_nonscalar_shape/has_invalid_dims/DenseToDenseSetOperation"
  op: "DenseToDenseSetOperation"
  input: "linear/head/weighted_loss/assert_broadcastable/is_valid_shape/has_valid_nonscalar_shape/has_invalid_dims/ExpandDims_1"
  input: "linear/head/weighted_loss/assert_broadcastable/is_valid_shape/has_valid_nonscalar_shape/has_invalid_dims/concat"
  attr {
    key: "T"
    value {
      type: DT_INT32
    }
  }
  attr {
    key: "_output_shapes"
    value {
      list {
        shape {
          dim {
            size: -1
          }
          dim {
            size: 2
          }
        }
        shape {
          dim {
            size: -1
          }
        }
        shape {
          dim {
            size: 2
          }
        }
      }
    }
  }
  attr {
    key: "set_operation"
    value {
      s: "a-b"
    }
  }
  attr {
    key: "validate_indices"
    value {
      b: true
    }
  }
}
node {
  name: "linear/head/weighted_loss/assert_broadcastable/is_valid_shape/has_valid_nonscalar_shape/has_invalid_dims/num_invalid_dims"
  op: "Size"
  input: "linear/head/weighted_loss/assert_broadcastable/is_valid_shape/has_valid_nonscalar_shape/has_invalid_dims/DenseToDenseSetOperation:1"
  attr {
    key: "T"
    value {
      type: DT_INT32
    }
  }
  attr {
    key: "_output_shapes"
    value {
      list {
        shape {
        }
      }
    }
  }
  attr {
    key: "out_type"
    value {
      type: DT_INT32
    }
  }
}
node {
  name: "linear/head/weighted_loss/assert_broadcastable/is_valid_shape/has_valid_nonscalar_shape/has_invalid_dims/x"
  op: "Const"
  input: "^add"
  input: "^linear/head/weighted_loss/assert_broadcastable/is_valid_shape/has_valid_nonscalar_shape/switch_t"
  attr {
    key: "_output_shapes"
    value {
      list {
        shape {
        }
      }
    }
  }
  attr {
    key: "dtype"
    value {
      type: DT_INT32
    }
  }
  attr {
    key: "value"
    value {
      tensor {
        dtype: DT_INT32
        tensor_shape {
        }
        int_val: 0
      }
    }
  }
}
node {
  name: "linear/head/weighted_loss/assert_broadcastable/is_valid_shape/has_valid_nonscalar_shape/has_invalid_dims"
  op: "Equal"
  input: "linear/head/weighted_loss/assert_broadcastable/is_valid_shape/has_valid_nonscalar_shape/has_invalid_dims/x"
  input: "linear/head/weighted_loss/assert_broadcastable/is_valid_shape/has_valid_nonscalar_shape/has_invalid_dims/num_invalid_dims"
  attr {
    key: "T"
    value {
      type: DT_INT32
    }
  }
  attr {
    key: "_output_shapes"
    value {
      list {
        shape {
        }
      }
    }
  }
}
node {
  name: "linear/head/weighted_loss/assert_broadcastable/is_valid_shape/has_valid_nonscalar_shape/Switch_1"
  op: "Switch"
  input: "linear/head/weighted_loss/assert_broadcastable/is_valid_shape/has_valid_nonscalar_shape/is_same_rank"
  input: "linear/head/weighted_loss/assert_broadcastable/is_valid_shape/has_valid_nonscalar_shape/pred_id"
  attr {
    key: "T"
    value {
      type: DT_BOOL
    }
  }
  attr {
    key: "_class"
    value {
      list {
        s: "loc:@linear/head/weighted_loss/assert_broadcastable/is_valid_shape/has_valid_nonscalar_shape/is_same_rank"
      }
    }
  }
  attr {
    key: "_output_shapes"
    value {
      list {
        shape {
        }
        shape {
        }
      }
    }
  }
}
node {
  name: "linear/head/weighted_loss/assert_broadcastable/is_valid_shape/has_valid_nonscalar_shape/Merge"
  op: "Merge"
  input: "linear/head/weighted_loss/assert_broadcastable/is_valid_shape/has_valid_nonscalar_shape/Switch_1"
  input: "linear/head/weighted_loss/assert_broadcastable/is_valid_shape/has_valid_nonscalar_shape/has_invalid_dims"
  attr {
    key: "N"
    value {
      i: 2
    }
  }
  attr {
    key: "T"
    value {
      type: DT_BOOL
    }
  }
  attr {
    key: "_output_shapes"
    value {
      list {
        shape {
        }
        shape {
        }
      }
    }
  }
}
node {
  name: "linear/head/weighted_loss/assert_broadcastable/is_valid_shape/Merge"
  op: "Merge"
  input: "linear/head/weighted_loss/assert_broadcastable/is_valid_shape/has_valid_nonscalar_shape/Merge"
  input: "linear/head/weighted_loss/assert_broadcastable/is_valid_shape/Switch_1:1"
  attr {
    key: "N"
    value {
      i: 2
    }
  }
  attr {
    key: "T"
    value {
      type: DT_BOOL
    }
  }
  attr {
    key: "_output_shapes"
    value {
      list {
        shape {
        }
        shape {
        }
      }
    }
  }
}
node {
  name: "linear/head/weighted_loss/assert_broadcastable/Const"
  op: "Const"
  input: "^add"
  attr {
    key: "_output_shapes"
    value {
      list {
        shape {
        }
      }
    }
  }
  attr {
    key: "dtype"
    value {
      type: DT_STRING
    }
  }
  attr {
    key: "value"
    value {
      tensor {
        dtype: DT_STRING
        tensor_shape {
        }
        string_val: "weights can not be broadcast to values."
      }
    }
  }
}
node {
  name: "linear/head/weighted_loss/assert_broadcastable/Const_1"
  op: "Const"
  input: "^add"
  attr {
    key: "_output_shapes"
    value {
      list {
        shape {
        }
      }
    }
  }
  attr {
    key: "dtype"
    value {
      type: DT_STRING
    }
  }
  attr {
    key: "value"
    value {
      tensor {
        dtype: DT_STRING
        tensor_shape {
        }
        string_val: "weights.shape="
      }
    }
  }
}
node {
  name: "linear/head/weighted_loss/assert_broadcastable/Const_2"
  op: "Const"
  input: "^add"
  attr {
    key: "_output_shapes"
    value {
      list {
        shape {
        }
      }
    }
  }
  attr {
    key: "dtype"
    value {
      type: DT_STRING
    }
  }
  attr {
    key: "value"
    value {
      tensor {
        dtype: DT_STRING
        tensor_shape {
        }
        string_val: "linear/head/weighted_loss/assert_broadcastable/weights:0"
      }
    }
  }
}
node {
  name: "linear/head/weighted_loss/assert_broadcastable/Const_3"
  op: "Const"
  input: "^add"
  attr {
    key: "_output_shapes"
    value {
      list {
        shape {
        }
      }
    }
  }
  attr {
    key: "dtype"
    value {
      type: DT_STRING
    }
  }
  attr {
    key: "value"
    value {
      tensor {
        dtype: DT_STRING
        tensor_shape {
        }
        string_val: "values.shape="
      }
    }
  }
}
node {
  name: "linear/head/weighted_loss/assert_broadcastable/Const_4"
  op: "Const"
  input: "^add"
  attr {
    key: "_output_shapes"
    value {
      list {
        shape {
        }
      }
    }
  }
  attr {
    key: "dtype"
    value {
      type: DT_STRING
    }
  }
  attr {
    key: "value"
    value {
      tensor {
        dtype: DT_STRING
        tensor_shape {
        }
        string_val: "linear/head/logistic_loss:0"
      }
    }
  }
}
node {
  name: "linear/head/weighted_loss/assert_broadcastable/Const_5"
  op: "Const"
  input: "^add"
  attr {
    key: "_output_shapes"
    value {
      list {
        shape {
        }
      }
    }
  }
  attr {
    key: "dtype"
    value {
      type: DT_STRING
    }
  }
  attr {
    key: "value"
    value {
      tensor {
        dtype: DT_STRING
        tensor_shape {
        }
        string_val: "is_scalar="
      }
    }
  }
}
node {
  name: "linear/head/weighted_loss/assert_broadcastable/AssertGuard/Switch"
  op: "Switch"
  input: "linear/head/weighted_loss/assert_broadcastable/is_valid_shape/Merge"
  input: "linear/head/weighted_loss/assert_broadcastable/is_valid_shape/Merge"
  attr {
    key: "T"
    value {
      type: DT_BOOL
    }
  }
  attr {
    key: "_output_shapes"
    value {
      list {
        shape {
        }
        shape {
        }
      }
    }
  }
}
node {
  name: "linear/head/weighted_loss/assert_broadcastable/AssertGuard/switch_t"
  op: "Identity"
  input: "linear/head/weighted_loss/assert_broadcastable/AssertGuard/Switch:1"
  attr {
    key: "T"
    value {
      type: DT_BOOL
    }
  }
  attr {
    key: "_output_shapes"
    value {
      list {
        shape {
        }
      }
    }
  }
}
node {
  name: "linear/head/weighted_loss/assert_broadcastable/AssertGuard/switch_f"
  op: "Identity"
  input: "linear/head/weighted_loss/assert_broadcastable/AssertGuard/Switch"
  attr {
    key: "T"
    value {
      type: DT_BOOL
    }
  }
  attr {
    key: "_output_shapes"
    value {
      list {
        shape {
        }
      }
    }
  }
}
node {
  name: "linear/head/weighted_loss/assert_broadcastable/AssertGuard/pred_id"
  op: "Identity"
  input: "linear/head/weighted_loss/assert_broadcastable/is_valid_shape/Merge"
  attr {
    key: "T"
    value {
      type: DT_BOOL
    }
  }
  attr {
    key: "_output_shapes"
    value {
      list {
        shape {
        }
      }
    }
  }
}
node {
  name: "linear/head/weighted_loss/assert_broadcastable/AssertGuard/NoOp"
  op: "NoOp"
  input: "^add"
  input: "^linear/head/weighted_loss/assert_broadcastable/AssertGuard/switch_t"
}
node {
  name: "linear/head/weighted_loss/assert_broadcastable/AssertGuard/control_dependency"
  op: "Identity"
  input: "linear/head/weighted_loss/assert_broadcastable/AssertGuard/switch_t"
  input: "^linear/head/weighted_loss/assert_broadcastable/AssertGuard/NoOp"
  attr {
    key: "T"
    value {
      type: DT_BOOL
    }
  }
  attr {
    key: "_class"
    value {
      list {
        s: "loc:@linear/head/weighted_loss/assert_broadcastable/AssertGuard/switch_t"
      }
    }
  }
  attr {
    key: "_output_shapes"
    value {
      list {
        shape {
        }
      }
    }
  }
}
node {
  name: "linear/head/weighted_loss/assert_broadcastable/AssertGuard/Assert/data_0"
  op: "Const"
  input: "^add"
  input: "^linear/head/weighted_loss/assert_broadcastable/AssertGuard/switch_f"
  attr {
    key: "_output_shapes"
    value {
      list {
        shape {
        }
      }
    }
  }
  attr {
    key: "dtype"
    value {
      type: DT_STRING
    }
  }
  attr {
    key: "value"
    value {
      tensor {
        dtype: DT_STRING
        tensor_shape {
        }
        string_val: "weights can not be broadcast to values."
      }
    }
  }
}
node {
  name: "linear/head/weighted_loss/assert_broadcastable/AssertGuard/Assert/data_1"
  op: "Const"
  input: "^add"
  input: "^linear/head/weighted_loss/assert_broadcastable/AssertGuard/switch_f"
  attr {
    key: "_output_shapes"
    value {
      list {
        shape {
        }
      }
    }
  }
  attr {
    key: "dtype"
    value {
      type: DT_STRING
    }
  }
  attr {
    key: "value"
    value {
      tensor {
        dtype: DT_STRING
        tensor_shape {
        }
        string_val: "weights.shape="
      }
    }
  }
}
node {
  name: "linear/head/weighted_loss/assert_broadcastable/AssertGuard/Assert/data_2"
  op: "Const"
  input: "^add"
  input: "^linear/head/weighted_loss/assert_broadcastable/AssertGuard/switch_f"
  attr {
    key: "_output_shapes"
    value {
      list {
        shape {
        }
      }
    }
  }
  attr {
    key: "dtype"
    value {
      type: DT_STRING
    }
  }
  attr {
    key: "value"
    value {
      tensor {
        dtype: DT_STRING
        tensor_shape {
        }
        string_val: "linear/head/weighted_loss/assert_broadcastable/weights:0"
      }
    }
  }
}
node {
  name: "linear/head/weighted_loss/assert_broadcastable/AssertGuard/Assert/data_4"
  op: "Const"
  input: "^add"
  input: "^linear/head/weighted_loss/assert_broadcastable/AssertGuard/switch_f"
  attr {
    key: "_output_shapes"
    value {
      list {
        shape {
        }
      }
    }
  }
  attr {
    key: "dtype"
    value {
      type: DT_STRING
    }
  }
  attr {
    key: "value"
    value {
      tensor {
        dtype: DT_STRING
        tensor_shape {
        }
        string_val: "values.shape="
      }
    }
  }
}
node {
  name: "linear/head/weighted_loss/assert_broadcastable/AssertGuard/Assert/data_5"
  op: "Const"
  input: "^add"
  input: "^linear/head/weighted_loss/assert_broadcastable/AssertGuard/switch_f"
  attr {
    key: "_output_shapes"
    value {
      list {
        shape {
        }
      }
    }
  }
  attr {
    key: "dtype"
    value {
      type: DT_STRING
    }
  }
  attr {
    key: "value"
    value {
      tensor {
        dtype: DT_STRING
        tensor_shape {
        }
        string_val: "linear/head/logistic_loss:0"
      }
    }
  }
}
node {
  name: "linear/head/weighted_loss/assert_broadcastable/AssertGuard/Assert/data_7"
  op: "Const"
  input: "^add"
  input: "^linear/head/weighted_loss/assert_broadcastable/AssertGuard/switch_f"
  attr {
    key: "_output_shapes"
    value {
      list {
        shape {
        }
      }
    }
  }
  attr {
    key: "dtype"
    value {
      type: DT_STRING
    }
  }
  attr {
    key: "value"
    value {
      tensor {
        dtype: DT_STRING
        tensor_shape {
        }
        string_val: "is_scalar="
      }
    }
  }
}
node {
  name: "linear/head/weighted_loss/assert_broadcastable/AssertGuard/Assert/Switch"
  op: "Switch"
  input: "linear/head/weighted_loss/assert_broadcastable/is_valid_shape/Merge"
  input: "linear/head/weighted_loss/assert_broadcastable/AssertGuard/pred_id"
  attr {
    key: "T"
    value {
      type: DT_BOOL
    }
  }
  attr {
    key: "_class"
    value {
      list {
        s: "loc:@linear/head/weighted_loss/assert_broadcastable/is_valid_shape/Merge"
      }
    }
  }
  attr {
    key: "_output_shapes"
    value {
      list {
        shape {
        }
        shape {
        }
      }
    }
  }
}
node {
  name: "linear/head/weighted_loss/assert_broadcastable/AssertGuard/Assert/Switch_1"
  op: "Switch"
  input: "linear/head/weighted_loss/assert_broadcastable/weights/shape"
  input: "linear/head/weighted_loss/assert_broadcastable/AssertGuard/pred_id"
  attr {
    key: "T"
    value {
      type: DT_INT32
    }
  }
  attr {
    key: "_class"
    value {
      list {
        s: "loc:@linear/head/weighted_loss/assert_broadcastable/weights/shape"
      }
    }
  }
  attr {
    key: "_output_shapes"
    value {
      list {
        shape {
          dim {
          }
        }
        shape {
          dim {
          }
        }
      }
    }
  }
}
node {
  name: "linear/head/weighted_loss/assert_broadcastable/AssertGuard/Assert/Switch_2"
  op: "Switch"
  input: "linear/head/weighted_loss/assert_broadcastable/values/shape"
  input: "linear/head/weighted_loss/assert_broadcastable/AssertGuard/pred_id"
  attr {
    key: "T"
    value {
      type: DT_INT32
    }
  }
  attr {
    key: "_class"
    value {
      list {
        s: "loc:@linear/head/weighted_loss/assert_broadcastable/values/shape"
      }
    }
  }
  attr {
    key: "_output_shapes"
    value {
      list {
        shape {
          dim {
            size: -1
          }
        }
        shape {
          dim {
            size: -1
          }
        }
      }
    }
  }
}
node {
  name: "linear/head/weighted_loss/assert_broadcastable/AssertGuard/Assert/Switch_3"
  op: "Switch"
  input: "linear/head/weighted_loss/assert_broadcastable/is_scalar"
  input: "linear/head/weighted_loss/assert_broadcastable/AssertGuard/pred_id"
  attr {
    key: "T"
    value {
      type: DT_BOOL
    }
  }
  attr {
    key: "_class"
    value {
      list {
        s: "loc:@linear/head/weighted_loss/assert_broadcastable/is_scalar"
      }
    }
  }
  attr {
    key: "_output_shapes"
    value {
      list {
        shape {
        }
        shape {
        }
      }
    }
  }
}
node {
  name: "linear/head/weighted_loss/assert_broadcastable/AssertGuard/Assert"
  op: "Assert"
  input: "linear/head/weighted_loss/assert_broadcastable/AssertGuard/Assert/Switch"
  input: "linear/head/weighted_loss/assert_broadcastable/AssertGuard/Assert/data_0"
  input: "linear/head/weighted_loss/assert_broadcastable/AssertGuard/Assert/data_1"
  input: "linear/head/weighted_loss/assert_broadcastable/AssertGuard/Assert/data_2"
  input: "linear/head/weighted_loss/assert_broadcastable/AssertGuard/Assert/Switch_1"
  input: "linear/head/weighted_loss/assert_broadcastable/AssertGuard/Assert/data_4"
  input: "linear/head/weighted_loss/assert_broadcastable/AssertGuard/Assert/data_5"
  input: "linear/head/weighted_loss/assert_broadcastable/AssertGuard/Assert/Switch_2"
  input: "linear/head/weighted_loss/assert_broadcastable/AssertGuard/Assert/data_7"
  input: "linear/head/weighted_loss/assert_broadcastable/AssertGuard/Assert/Switch_3"
  attr {
    key: "T"
    value {
      list {
        type: DT_STRING
        type: DT_STRING
        type: DT_STRING
        type: DT_INT32
        type: DT_STRING
        type: DT_STRING
        type: DT_INT32
        type: DT_STRING
        type: DT_BOOL
      }
    }
  }
  attr {
    key: "summarize"
    value {
      i: 3
    }
  }
}
node {
  name: "linear/head/weighted_loss/assert_broadcastable/AssertGuard/control_dependency_1"
  op: "Identity"
  input: "linear/head/weighted_loss/assert_broadcastable/AssertGuard/switch_f"
  input: "^linear/head/weighted_loss/assert_broadcastable/AssertGuard/Assert"
  attr {
    key: "T"
    value {
      type: DT_BOOL
    }
  }
  attr {
    key: "_class"
    value {
      list {
        s: "loc:@linear/head/weighted_loss/assert_broadcastable/AssertGuard/switch_f"
      }
    }
  }
  attr {
    key: "_output_shapes"
    value {
      list {
        shape {
        }
      }
    }
  }
}
node {
  name: "linear/head/weighted_loss/assert_broadcastable/AssertGuard/Merge"
  op: "Merge"
  input: "linear/head/weighted_loss/assert_broadcastable/AssertGuard/control_dependency_1"
  input: "linear/head/weighted_loss/assert_broadcastable/AssertGuard/control_dependency"
  attr {
    key: "N"
    value {
      i: 2
    }
  }
  attr {
    key: "T"
    value {
      type: DT_BOOL
    }
  }
  attr {
    key: "_output_shapes"
    value {
      list {
        shape {
        }
        shape {
        }
      }
    }
  }
}
node {
  name: "linear/head/weighted_loss/ToFloat_1/x"
  op: "Const"
  input: "^add"
  input: "^linear/head/weighted_loss/assert_broadcastable/AssertGuard/Merge"
  attr {
    key: "_output_shapes"
    value {
      list {
        shape {
        }
      }
    }
  }
  attr {
    key: "dtype"
    value {
      type: DT_FLOAT
    }
  }
  attr {
    key: "value"
    value {
      tensor {
        dtype: DT_FLOAT
        tensor_shape {
        }
        float_val: 1.0
      }
    }
  }
}
node {
  name: "linear/head/weighted_loss/Mul"
  op: "Mul"
  input: "linear/head/logistic_loss"
  input: "linear/head/weighted_loss/ToFloat_1/x"
  attr {
    key: "T"
    value {
      type: DT_FLOAT
    }
  }
  attr {
    key: "_output_shapes"
    value {
      list {
        shape {
          unknown_rank: true
        }
      }
    }
  }
}
node {
  name: "linear/head/weighted_loss/Rank"
  op: "Rank"
  input: "linear/head/weighted_loss/Mul"
  attr {
    key: "T"
    value {
      type: DT_FLOAT
    }
  }
  attr {
    key: "_output_shapes"
    value {
      list {
        shape {
        }
      }
    }
  }
}
node {
  name: "linear/head/weighted_loss/range/start"
  op: "Const"
  input: "^add"
  input: "^linear/head/weighted_loss/assert_broadcastable/AssertGuard/Merge"
  attr {
    key: "_output_shapes"
    value {
      list {
        shape {
        }
      }
    }
  }
  attr {
    key: "dtype"
    value {
      type: DT_INT32
    }
  }
  attr {
    key: "value"
    value {
      tensor {
        dtype: DT_INT32
        tensor_shape {
        }
        int_val: 0
      }
    }
  }
}
node {
  name: "linear/head/weighted_loss/range/delta"
  op: "Const"
  input: "^add"
  input: "^linear/head/weighted_loss/assert_broadcastable/AssertGuard/Merge"
  attr {
    key: "_output_shapes"
    value {
      list {
        shape {
        }
      }
    }
  }
  attr {
    key: "dtype"
    value {
      type: DT_INT32
    }
  }
  attr {
    key: "value"
    value {
      tensor {
        dtype: DT_INT32
        tensor_shape {
        }
        int_val: 1
      }
    }
  }
}
node {
  name: "linear/head/weighted_loss/range"
  op: "Range"
  input: "linear/head/weighted_loss/range/start"
  input: "linear/head/weighted_loss/Rank"
  input: "linear/head/weighted_loss/range/delta"
  attr {
    key: "Tidx"
    value {
      type: DT_INT32
    }
  }
  attr {
    key: "_output_shapes"
    value {
      list {
        shape {
          dim {
            size: -1
          }
        }
      }
    }
  }
}
node {
  name: "linear/head/weighted_loss/Sum"
  op: "Sum"
  input: "linear/head/weighted_loss/Mul"
  input: "linear/head/weighted_loss/range"
  attr {
    key: "T"
    value {
      type: DT_FLOAT
    }
  }
  attr {
    key: "Tidx"
    value {
      type: DT_INT32
    }
  }
  attr {
    key: "_output_shapes"
    value {
      list {
        shape {
          unknown_rank: true
        }
      }
    }
  }
  attr {
    key: "keep_dims"
    value {
      b: false
    }
  }
}
node {
  name: "loss/tags"
  op: "Const"
  input: "^add"
  attr {
    key: "_output_shapes"
    value {
      list {
        shape {
        }
      }
    }
  }
  attr {
    key: "dtype"
    value {
      type: DT_STRING
    }
  }
  attr {
    key: "value"
    value {
      tensor {
        dtype: DT_STRING
        tensor_shape {
        }
        string_val: "loss"
      }
    }
  }
}
node {
  name: "loss"
  op: "ScalarSummary"
  input: "loss/tags"
  input: "linear/head/weighted_loss/Sum"
  attr {
    key: "T"
    value {
      type: DT_FLOAT
    }
  }
  attr {
    key: "_output_shapes"
    value {
      list {
        shape {
        }
      }
    }
  }
}
node {
  name: "weighted_loss/assert_broadcastable/weights"
  op: "Const"
  input: "^add"
  attr {
    key: "_output_shapes"
    value {
      list {
        shape {
        }
      }
    }
  }
  attr {
    key: "dtype"
    value {
      type: DT_FLOAT
    }
  }
  attr {
    key: "value"
    value {
      tensor {
        dtype: DT_FLOAT
        tensor_shape {
        }
        float_val: 1.0
      }
    }
  }
}
node {
  name: "weighted_loss/assert_broadcastable/weights/shape"
  op: "Const"
  input: "^add"
  attr {
    key: "_output_shapes"
    value {
      list {
        shape {
          dim {
          }
        }
      }
    }
  }
  attr {
    key: "dtype"
    value {
      type: DT_INT32
    }
  }
  attr {
    key: "value"
    value {
      tensor {
        dtype: DT_INT32
        tensor_shape {
          dim {
          }
        }
      }
    }
  }
}
node {
  name: "weighted_loss/assert_broadcastable/weights/rank"
  op: "Const"
  input: "^add"
  attr {
    key: "_output_shapes"
    value {
      list {
        shape {
        }
      }
    }
  }
  attr {
    key: "dtype"
    value {
      type: DT_INT32
    }
  }
  attr {
    key: "value"
    value {
      tensor {
        dtype: DT_INT32
        tensor_shape {
        }
        int_val: 0
      }
    }
  }
}
node {
  name: "weighted_loss/assert_broadcastable/values/shape"
  op: "Shape"
  input: "linear/head/logistic_loss"
  attr {
    key: "T"
    value {
      type: DT_FLOAT
    }
  }
  attr {
    key: "_output_shapes"
    value {
      list {
        shape {
          dim {
            size: -1
          }
        }
      }
    }
  }
  attr {
    key: "out_type"
    value {
      type: DT_INT32
    }
  }
}
node {
  name: "weighted_loss/assert_broadcastable/values/rank"
  op: "Rank"
  input: "linear/head/logistic_loss"
  attr {
    key: "T"
    value {
      type: DT_FLOAT
    }
  }
  attr {
    key: "_output_shapes"
    value {
      list {
        shape {
        }
      }
    }
  }
}
node {
  name: "weighted_loss/assert_broadcastable/is_scalar/x"
  op: "Const"
  input: "^add"
  attr {
    key: "_output_shapes"
    value {
      list {
        shape {
        }
      }
    }
  }
  attr {
    key: "dtype"
    value {
      type: DT_INT32
    }
  }
  attr {
    key: "value"
    value {
      tensor {
        dtype: DT_INT32
        tensor_shape {
        }
        int_val: 0
      }
    }
  }
}
node {
  name: "weighted_loss/assert_broadcastable/is_scalar"
  op: "Equal"
  input: "weighted_loss/assert_broadcastable/is_scalar/x"
  input: "weighted_loss/assert_broadcastable/weights/rank"
  attr {
    key: "T"
    value {
      type: DT_INT32
    }
  }
  attr {
    key: "_output_shapes"
    value {
      list {
        shape {
        }
      }
    }
  }
}
node {
  name: "weighted_loss/assert_broadcastable/is_valid_shape/Switch"
  op: "Switch"
  input: "weighted_loss/assert_broadcastable/is_scalar"
  input: "weighted_loss/assert_broadcastable/is_scalar"
  attr {
    key: "T"
    value {
      type: DT_BOOL
    }
  }
  attr {
    key: "_output_shapes"
    value {
      list {
        shape {
        }
        shape {
        }
      }
    }
  }
}
node {
  name: "weighted_loss/assert_broadcastable/is_valid_shape/switch_t"
  op: "Identity"
  input: "weighted_loss/assert_broadcastable/is_valid_shape/Switch:1"
  attr {
    key: "T"
    value {
      type: DT_BOOL
    }
  }
  attr {
    key: "_output_shapes"
    value {
      list {
        shape {
        }
      }
    }
  }
}
node {
  name: "weighted_loss/assert_broadcastable/is_valid_shape/switch_f"
  op: "Identity"
  input: "weighted_loss/assert_broadcastable/is_valid_shape/Switch"
  attr {
    key: "T"
    value {
      type: DT_BOOL
    }
  }
  attr {
    key: "_output_shapes"
    value {
      list {
        shape {
        }
      }
    }
  }
}
node {
  name: "weighted_loss/assert_broadcastable/is_valid_shape/pred_id"
  op: "Identity"
  input: "weighted_loss/assert_broadcastable/is_scalar"
  attr {
    key: "T"
    value {
      type: DT_BOOL
    }
  }
  attr {
    key: "_output_shapes"
    value {
      list {
        shape {
        }
      }
    }
  }
}
node {
  name: "weighted_loss/assert_broadcastable/is_valid_shape/Switch_1"
  op: "Switch"
  input: "weighted_loss/assert_broadcastable/is_scalar"
  input: "weighted_loss/assert_broadcastable/is_valid_shape/pred_id"
  attr {
    key: "T"
    value {
      type: DT_BOOL
    }
  }
  attr {
    key: "_class"
    value {
      list {
        s: "loc:@weighted_loss/assert_broadcastable/is_scalar"
      }
    }
  }
  attr {
    key: "_output_shapes"
    value {
      list {
        shape {
        }
        shape {
        }
      }
    }
  }
}
node {
  name: "weighted_loss/assert_broadcastable/is_valid_shape/has_valid_nonscalar_shape/is_same_rank/Switch"
  op: "Switch"
  input: "weighted_loss/assert_broadcastable/values/rank"
  input: "weighted_loss/assert_broadcastable/is_valid_shape/pred_id"
  attr {
    key: "T"
    value {
      type: DT_INT32
    }
  }
  attr {
    key: "_class"
    value {
      list {
        s: "loc:@weighted_loss/assert_broadcastable/values/rank"
      }
    }
  }
  attr {
    key: "_output_shapes"
    value {
      list {
        shape {
        }
        shape {
        }
      }
    }
  }
}
node {
  name: "weighted_loss/assert_broadcastable/is_valid_shape/has_valid_nonscalar_shape/is_same_rank/Switch_1"
  op: "Switch"
  input: "weighted_loss/assert_broadcastable/weights/rank"
  input: "weighted_loss/assert_broadcastable/is_valid_shape/pred_id"
  attr {
    key: "T"
    value {
      type: DT_INT32
    }
  }
  attr {
    key: "_class"
    value {
      list {
        s: "loc:@weighted_loss/assert_broadcastable/weights/rank"
      }
    }
  }
  attr {
    key: "_output_shapes"
    value {
      list {
        shape {
        }
        shape {
        }
      }
    }
  }
}
node {
  name: "weighted_loss/assert_broadcastable/is_valid_shape/has_valid_nonscalar_shape/is_same_rank"
  op: "Equal"
  input: "weighted_loss/assert_broadcastable/is_valid_shape/has_valid_nonscalar_shape/is_same_rank/Switch"
  input: "weighted_loss/assert_broadcastable/is_valid_shape/has_valid_nonscalar_shape/is_same_rank/Switch_1"
  attr {
    key: "T"
    value {
      type: DT_INT32
    }
  }
  attr {
    key: "_output_shapes"
    value {
      list {
        shape {
        }
      }
    }
  }
}
node {
  name: "weighted_loss/assert_broadcastable/is_valid_shape/has_valid_nonscalar_shape/Switch"
  op: "Switch"
  input: "weighted_loss/assert_broadcastable/is_valid_shape/has_valid_nonscalar_shape/is_same_rank"
  input: "weighted_loss/assert_broadcastable/is_valid_shape/has_valid_nonscalar_shape/is_same_rank"
  attr {
    key: "T"
    value {
      type: DT_BOOL
    }
  }
  attr {
    key: "_output_shapes"
    value {
      list {
        shape {
        }
        shape {
        }
      }
    }
  }
}
node {
  name: "weighted_loss/assert_broadcastable/is_valid_shape/has_valid_nonscalar_shape/switch_t"
  op: "Identity"
  input: "weighted_loss/assert_broadcastable/is_valid_shape/has_valid_nonscalar_shape/Switch:1"
  attr {
    key: "T"
    value {
      type: DT_BOOL
    }
  }
  attr {
    key: "_output_shapes"
    value {
      list {
        shape {
        }
      }
    }
  }
}
node {
  name: "weighted_loss/assert_broadcastable/is_valid_shape/has_valid_nonscalar_shape/switch_f"
  op: "Identity"
  input: "weighted_loss/assert_broadcastable/is_valid_shape/has_valid_nonscalar_shape/Switch"
  attr {
    key: "T"
    value {
      type: DT_BOOL
    }
  }
  attr {
    key: "_output_shapes"
    value {
      list {
        shape {
        }
      }
    }
  }
}
node {
  name: "weighted_loss/assert_broadcastable/is_valid_shape/has_valid_nonscalar_shape/pred_id"
  op: "Identity"
  input: "weighted_loss/assert_broadcastable/is_valid_shape/has_valid_nonscalar_shape/is_same_rank"
  attr {
    key: "T"
    value {
      type: DT_BOOL
    }
  }
  attr {
    key: "_output_shapes"
    value {
      list {
        shape {
        }
      }
    }
  }
}
node {
  name: "weighted_loss/assert_broadcastable/is_valid_shape/has_valid_nonscalar_shape/has_invalid_dims/ExpandDims/dim"
  op: "Const"
  input: "^add"
  input: "^weighted_loss/assert_broadcastable/is_valid_shape/has_valid_nonscalar_shape/switch_t"
  attr {
    key: "_output_shapes"
    value {
      list {
        shape {
        }
      }
    }
  }
  attr {
    key: "dtype"
    value {
      type: DT_INT32
    }
  }
  attr {
    key: "value"
    value {
      tensor {
        dtype: DT_INT32
        tensor_shape {
        }
        int_val: -1
      }
    }
  }
}
node {
  name: "weighted_loss/assert_broadcastable/is_valid_shape/has_valid_nonscalar_shape/has_invalid_dims/ExpandDims/Switch"
  op: "Switch"
  input: "weighted_loss/assert_broadcastable/values/shape"
  input: "weighted_loss/assert_broadcastable/is_valid_shape/pred_id"
  attr {
    key: "T"
    value {
      type: DT_INT32
    }
  }
  attr {
    key: "_class"
    value {
      list {
        s: "loc:@weighted_loss/assert_broadcastable/values/shape"
      }
    }
  }
  attr {
    key: "_output_shapes"
    value {
      list {
        shape {
          dim {
            size: -1
          }
        }
        shape {
          dim {
            size: -1
          }
        }
      }
    }
  }
}
node {
  name: "weighted_loss/assert_broadcastable/is_valid_shape/has_valid_nonscalar_shape/has_invalid_dims/ExpandDims/Switch_1"
  op: "Switch"
  input: "weighted_loss/assert_broadcastable/is_valid_shape/has_valid_nonscalar_shape/has_invalid_dims/ExpandDims/Switch"
  input: "weighted_loss/assert_broadcastable/is_valid_shape/has_valid_nonscalar_shape/pred_id"
  attr {
    key: "T"
    value {
      type: DT_INT32
    }
  }
  attr {
    key: "_class"
    value {
      list {
        s: "loc:@weighted_loss/assert_broadcastable/values/shape"
      }
    }
  }
  attr {
    key: "_output_shapes"
    value {
      list {
        shape {
          dim {
            size: -1
          }
        }
        shape {
          dim {
            size: -1
          }
        }
      }
    }
  }
}
node {
  name: "weighted_loss/assert_broadcastable/is_valid_shape/has_valid_nonscalar_shape/has_invalid_dims/ExpandDims"
  op: "ExpandDims"
  input: "weighted_loss/assert_broadcastable/is_valid_shape/has_valid_nonscalar_shape/has_invalid_dims/ExpandDims/Switch_1:1"
  input: "weighted_loss/assert_broadcastable/is_valid_shape/has_valid_nonscalar_shape/has_invalid_dims/ExpandDims/dim"
  attr {
    key: "T"
    value {
      type: DT_INT32
    }
  }
  attr {
    key: "Tdim"
    value {
      type: DT_INT32
    }
  }
  attr {
    key: "_output_shapes"
    value {
      list {
        shape {
          dim {
            size: -1
          }
          dim {
            size: 1
          }
        }
      }
    }
  }
}
node {
  name: "weighted_loss/assert_broadcastable/is_valid_shape/has_valid_nonscalar_shape/has_invalid_dims/ones_like/Shape"
  op: "Shape"
  input: "weighted_loss/assert_broadcastable/is_valid_shape/has_valid_nonscalar_shape/has_invalid_dims/ExpandDims"
  attr {
    key: "T"
    value {
      type: DT_INT32
    }
  }
  attr {
    key: "_output_shapes"
    value {
      list {
        shape {
          dim {
            size: 2
          }
        }
      }
    }
  }
  attr {
    key: "out_type"
    value {
      type: DT_INT32
    }
  }
}
node {
  name: "weighted_loss/assert_broadcastable/is_valid_shape/has_valid_nonscalar_shape/has_invalid_dims/ones_like/Const"
  op: "Const"
  input: "^add"
  input: "^weighted_loss/assert_broadcastable/is_valid_shape/has_valid_nonscalar_shape/switch_t"
  attr {
    key: "_output_shapes"
    value {
      list {
        shape {
        }
      }
    }
  }
  attr {
    key: "dtype"
    value {
      type: DT_INT32
    }
  }
  attr {
    key: "value"
    value {
      tensor {
        dtype: DT_INT32
        tensor_shape {
        }
        int_val: 1
      }
    }
  }
}
node {
  name: "weighted_loss/assert_broadcastable/is_valid_shape/has_valid_nonscalar_shape/has_invalid_dims/ones_like"
  op: "Fill"
  input: "weighted_loss/assert_broadcastable/is_valid_shape/has_valid_nonscalar_shape/has_invalid_dims/ones_like/Shape"
  input: "weighted_loss/assert_broadcastable/is_valid_shape/has_valid_nonscalar_shape/has_invalid_dims/ones_like/Const"
  attr {
    key: "T"
    value {
      type: DT_INT32
    }
  }
  attr {
    key: "_output_shapes"
    value {
      list {
        shape {
          dim {
            size: -1
          }
          dim {
            size: 1
          }
        }
      }
    }
  }
}
node {
  name: "weighted_loss/assert_broadcastable/is_valid_shape/has_valid_nonscalar_shape/has_invalid_dims/concat/axis"
  op: "Const"
  input: "^add"
  input: "^weighted_loss/assert_broadcastable/is_valid_shape/has_valid_nonscalar_shape/switch_t"
  attr {
    key: "_output_shapes"
    value {
      list {
        shape {
        }
      }
    }
  }
  attr {
    key: "dtype"
    value {
      type: DT_INT32
    }
  }
  attr {
    key: "value"
    value {
      tensor {
        dtype: DT_INT32
        tensor_shape {
        }
        int_val: 1
      }
    }
  }
}
node {
  name: "weighted_loss/assert_broadcastable/is_valid_shape/has_valid_nonscalar_shape/has_invalid_dims/concat"
  op: "ConcatV2"
  input: "weighted_loss/assert_broadcastable/is_valid_shape/has_valid_nonscalar_shape/has_invalid_dims/ExpandDims"
  input: "weighted_loss/assert_broadcastable/is_valid_shape/has_valid_nonscalar_shape/has_invalid_dims/ones_like"
  input: "weighted_loss/assert_broadcastable/is_valid_shape/has_valid_nonscalar_shape/has_invalid_dims/concat/axis"
  attr {
    key: "N"
    value {
      i: 2
    }
  }
  attr {
    key: "T"
    value {
      type: DT_INT32
    }
  }
  attr {
    key: "Tidx"
    value {
      type: DT_INT32
    }
  }
  attr {
    key: "_output_shapes"
    value {
      list {
        shape {
          dim {
            size: -1
          }
          dim {
            size: 2
          }
        }
      }
    }
  }
}
node {
  name: "weighted_loss/assert_broadcastable/is_valid_shape/has_valid_nonscalar_shape/has_invalid_dims/ExpandDims_1/dim"
  op: "Const"
  input: "^add"
  input: "^weighted_loss/assert_broadcastable/is_valid_shape/has_valid_nonscalar_shape/switch_t"
  attr {
    key: "_output_shapes"
    value {
      list {
        shape {
        }
      }
    }
  }
  attr {
    key: "dtype"
    value {
      type: DT_INT32
    }
  }
  attr {
    key: "value"
    value {
      tensor {
        dtype: DT_INT32
        tensor_shape {
        }
        int_val: -1
      }
    }
  }
}
node {
  name: "weighted_loss/assert_broadcastable/is_valid_shape/has_valid_nonscalar_shape/has_invalid_dims/ExpandDims_1/Switch"
  op: "Switch"
  input: "weighted_loss/assert_broadcastable/weights/shape"
  input: "weighted_loss/assert_broadcastable/is_valid_shape/pred_id"
  attr {
    key: "T"
    value {
      type: DT_INT32
    }
  }
  attr {
    key: "_class"
    value {
      list {
        s: "loc:@weighted_loss/assert_broadcastable/weights/shape"
      }
    }
  }
  attr {
    key: "_output_shapes"
    value {
      list {
        shape {
          dim {
          }
        }
        shape {
          dim {
          }
        }
      }
    }
  }
}
node {
  name: "weighted_loss/assert_broadcastable/is_valid_shape/has_valid_nonscalar_shape/has_invalid_dims/ExpandDims_1/Switch_1"
  op: "Switch"
  input: "weighted_loss/assert_broadcastable/is_valid_shape/has_valid_nonscalar_shape/has_invalid_dims/ExpandDims_1/Switch"
  input: "weighted_loss/assert_broadcastable/is_valid_shape/has_valid_nonscalar_shape/pred_id"
  attr {
    key: "T"
    value {
      type: DT_INT32
    }
  }
  attr {
    key: "_class"
    value {
      list {
        s: "loc:@weighted_loss/assert_broadcastable/weights/shape"
      }
    }
  }
  attr {
    key: "_output_shapes"
    value {
      list {
        shape {
          dim {
          }
        }
        shape {
          dim {
          }
        }
      }
    }
  }
}
node {
  name: "weighted_loss/assert_broadcastable/is_valid_shape/has_valid_nonscalar_shape/has_invalid_dims/ExpandDims_1"
  op: "ExpandDims"
  input: "weighted_loss/assert_broadcastable/is_valid_shape/has_valid_nonscalar_shape/has_invalid_dims/ExpandDims_1/Switch_1:1"
  input: "weighted_loss/assert_broadcastable/is_valid_shape/has_valid_nonscalar_shape/has_invalid_dims/ExpandDims_1/dim"
  attr {
    key: "T"
    value {
      type: DT_INT32
    }
  }
  attr {
    key: "Tdim"
    value {
      type: DT_INT32
    }
  }
  attr {
    key: "_output_shapes"
    value {
      list {
        shape {
          dim {
          }
          dim {
            size: 1
          }
        }
      }
    }
  }
}
node {
  name: "weighted_loss/assert_broadcastable/is_valid_shape/has_valid_nonscalar_shape/has_invalid_dims/DenseToDenseSetOperation"
  op: "DenseToDenseSetOperation"
  input: "weighted_loss/assert_broadcastable/is_valid_shape/has_valid_nonscalar_shape/has_invalid_dims/ExpandDims_1"
  input: "weighted_loss/assert_broadcastable/is_valid_shape/has_valid_nonscalar_shape/has_invalid_dims/concat"
  attr {
    key: "T"
    value {
      type: DT_INT32
    }
  }
  attr {
    key: "_output_shapes"
    value {
      list {
        shape {
          dim {
            size: -1
          }
          dim {
            size: 2
          }
        }
        shape {
          dim {
            size: -1
          }
        }
        shape {
          dim {
            size: 2
          }
        }
      }
    }
  }
  attr {
    key: "set_operation"
    value {
      s: "a-b"
    }
  }
  attr {
    key: "validate_indices"
    value {
      b: true
    }
  }
}
node {
  name: "weighted_loss/assert_broadcastable/is_valid_shape/has_valid_nonscalar_shape/has_invalid_dims/num_invalid_dims"
  op: "Size"
  input: "weighted_loss/assert_broadcastable/is_valid_shape/has_valid_nonscalar_shape/has_invalid_dims/DenseToDenseSetOperation:1"
  attr {
    key: "T"
    value {
      type: DT_INT32
    }
  }
  attr {
    key: "_output_shapes"
    value {
      list {
        shape {
        }
      }
    }
  }
  attr {
    key: "out_type"
    value {
      type: DT_INT32
    }
  }
}
node {
  name: "weighted_loss/assert_broadcastable/is_valid_shape/has_valid_nonscalar_shape/has_invalid_dims/x"
  op: "Const"
  input: "^add"
  input: "^weighted_loss/assert_broadcastable/is_valid_shape/has_valid_nonscalar_shape/switch_t"
  attr {
    key: "_output_shapes"
    value {
      list {
        shape {
        }
      }
    }
  }
  attr {
    key: "dtype"
    value {
      type: DT_INT32
    }
  }
  attr {
    key: "value"
    value {
      tensor {
        dtype: DT_INT32
        tensor_shape {
        }
        int_val: 0
      }
    }
  }
}
node {
  name: "weighted_loss/assert_broadcastable/is_valid_shape/has_valid_nonscalar_shape/has_invalid_dims"
  op: "Equal"
  input: "weighted_loss/assert_broadcastable/is_valid_shape/has_valid_nonscalar_shape/has_invalid_dims/x"
  input: "weighted_loss/assert_broadcastable/is_valid_shape/has_valid_nonscalar_shape/has_invalid_dims/num_invalid_dims"
  attr {
    key: "T"
    value {
      type: DT_INT32
    }
  }
  attr {
    key: "_output_shapes"
    value {
      list {
        shape {
        }
      }
    }
  }
}
node {
  name: "weighted_loss/assert_broadcastable/is_valid_shape/has_valid_nonscalar_shape/Switch_1"
  op: "Switch"
  input: "weighted_loss/assert_broadcastable/is_valid_shape/has_valid_nonscalar_shape/is_same_rank"
  input: "weighted_loss/assert_broadcastable/is_valid_shape/has_valid_nonscalar_shape/pred_id"
  attr {
    key: "T"
    value {
      type: DT_BOOL
    }
  }
  attr {
    key: "_class"
    value {
      list {
        s: "loc:@weighted_loss/assert_broadcastable/is_valid_shape/has_valid_nonscalar_shape/is_same_rank"
      }
    }
  }
  attr {
    key: "_output_shapes"
    value {
      list {
        shape {
        }
        shape {
        }
      }
    }
  }
}
node {
  name: "weighted_loss/assert_broadcastable/is_valid_shape/has_valid_nonscalar_shape/Merge"
  op: "Merge"
  input: "weighted_loss/assert_broadcastable/is_valid_shape/has_valid_nonscalar_shape/Switch_1"
  input: "weighted_loss/assert_broadcastable/is_valid_shape/has_valid_nonscalar_shape/has_invalid_dims"
  attr {
    key: "N"
    value {
      i: 2
    }
  }
  attr {
    key: "T"
    value {
      type: DT_BOOL
    }
  }
  attr {
    key: "_output_shapes"
    value {
      list {
        shape {
        }
        shape {
        }
      }
    }
  }
}
node {
  name: "weighted_loss/assert_broadcastable/is_valid_shape/Merge"
  op: "Merge"
  input: "weighted_loss/assert_broadcastable/is_valid_shape/has_valid_nonscalar_shape/Merge"
  input: "weighted_loss/assert_broadcastable/is_valid_shape/Switch_1:1"
  attr {
    key: "N"
    value {
      i: 2
    }
  }
  attr {
    key: "T"
    value {
      type: DT_BOOL
    }
  }
  attr {
    key: "_output_shapes"
    value {
      list {
        shape {
        }
        shape {
        }
      }
    }
  }
}
node {
  name: "weighted_loss/assert_broadcastable/Const"
  op: "Const"
  input: "^add"
  attr {
    key: "_output_shapes"
    value {
      list {
        shape {
        }
      }
    }
  }
  attr {
    key: "dtype"
    value {
      type: DT_STRING
    }
  }
  attr {
    key: "value"
    value {
      tensor {
        dtype: DT_STRING
        tensor_shape {
        }
        string_val: "weights can not be broadcast to values."
      }
    }
  }
}
node {
  name: "weighted_loss/assert_broadcastable/Const_1"
  op: "Const"
  input: "^add"
  attr {
    key: "_output_shapes"
    value {
      list {
        shape {
        }
      }
    }
  }
  attr {
    key: "dtype"
    value {
      type: DT_STRING
    }
  }
  attr {
    key: "value"
    value {
      tensor {
        dtype: DT_STRING
        tensor_shape {
        }
        string_val: "weights.shape="
      }
    }
  }
}
node {
  name: "weighted_loss/assert_broadcastable/Const_2"
  op: "Const"
  input: "^add"
  attr {
    key: "_output_shapes"
    value {
      list {
        shape {
        }
      }
    }
  }
  attr {
    key: "dtype"
    value {
      type: DT_STRING
    }
  }
  attr {
    key: "value"
    value {
      tensor {
        dtype: DT_STRING
        tensor_shape {
        }
        string_val: "weighted_loss/assert_broadcastable/weights:0"
      }
    }
  }
}
node {
  name: "weighted_loss/assert_broadcastable/Const_3"
  op: "Const"
  input: "^add"
  attr {
    key: "_output_shapes"
    value {
      list {
        shape {
        }
      }
    }
  }
  attr {
    key: "dtype"
    value {
      type: DT_STRING
    }
  }
  attr {
    key: "value"
    value {
      tensor {
        dtype: DT_STRING
        tensor_shape {
        }
        string_val: "values.shape="
      }
    }
  }
}
node {
  name: "weighted_loss/assert_broadcastable/Const_4"
  op: "Const"
  input: "^add"
  attr {
    key: "_output_shapes"
    value {
      list {
        shape {
        }
      }
    }
  }
  attr {
    key: "dtype"
    value {
      type: DT_STRING
    }
  }
  attr {
    key: "value"
    value {
      tensor {
        dtype: DT_STRING
        tensor_shape {
        }
        string_val: "linear/head/logistic_loss:0"
      }
    }
  }
}
node {
  name: "weighted_loss/assert_broadcastable/Const_5"
  op: "Const"
  input: "^add"
  attr {
    key: "_output_shapes"
    value {
      list {
        shape {
        }
      }
    }
  }
  attr {
    key: "dtype"
    value {
      type: DT_STRING
    }
  }
  attr {
    key: "value"
    value {
      tensor {
        dtype: DT_STRING
        tensor_shape {
        }
        string_val: "is_scalar="
      }
    }
  }
}
node {
  name: "weighted_loss/assert_broadcastable/AssertGuard/Switch"
  op: "Switch"
  input: "weighted_loss/assert_broadcastable/is_valid_shape/Merge"
  input: "weighted_loss/assert_broadcastable/is_valid_shape/Merge"
  attr {
    key: "T"
    value {
      type: DT_BOOL
    }
  }
  attr {
    key: "_output_shapes"
    value {
      list {
        shape {
        }
        shape {
        }
      }
    }
  }
}
node {
  name: "weighted_loss/assert_broadcastable/AssertGuard/switch_t"
  op: "Identity"
  input: "weighted_loss/assert_broadcastable/AssertGuard/Switch:1"
  attr {
    key: "T"
    value {
      type: DT_BOOL
    }
  }
  attr {
    key: "_output_shapes"
    value {
      list {
        shape {
        }
      }
    }
  }
}
node {
  name: "weighted_loss/assert_broadcastable/AssertGuard/switch_f"
  op: "Identity"
  input: "weighted_loss/assert_broadcastable/AssertGuard/Switch"
  attr {
    key: "T"
    value {
      type: DT_BOOL
    }
  }
  attr {
    key: "_output_shapes"
    value {
      list {
        shape {
        }
      }
    }
  }
}
node {
  name: "weighted_loss/assert_broadcastable/AssertGuard/pred_id"
  op: "Identity"
  input: "weighted_loss/assert_broadcastable/is_valid_shape/Merge"
  attr {
    key: "T"
    value {
      type: DT_BOOL
    }
  }
  attr {
    key: "_output_shapes"
    value {
      list {
        shape {
        }
      }
    }
  }
}
node {
  name: "weighted_loss/assert_broadcastable/AssertGuard/NoOp"
  op: "NoOp"
  input: "^add"
  input: "^weighted_loss/assert_broadcastable/AssertGuard/switch_t"
}
node {
  name: "weighted_loss/assert_broadcastable/AssertGuard/control_dependency"
  op: "Identity"
  input: "weighted_loss/assert_broadcastable/AssertGuard/switch_t"
  input: "^weighted_loss/assert_broadcastable/AssertGuard/NoOp"
  attr {
    key: "T"
    value {
      type: DT_BOOL
    }
  }
  attr {
    key: "_class"
    value {
      list {
        s: "loc:@weighted_loss/assert_broadcastable/AssertGuard/switch_t"
      }
    }
  }
  attr {
    key: "_output_shapes"
    value {
      list {
        shape {
        }
      }
    }
  }
}
node {
  name: "weighted_loss/assert_broadcastable/AssertGuard/Assert/data_0"
  op: "Const"
  input: "^add"
  input: "^weighted_loss/assert_broadcastable/AssertGuard/switch_f"
  attr {
    key: "_output_shapes"
    value {
      list {
        shape {
        }
      }
    }
  }
  attr {
    key: "dtype"
    value {
      type: DT_STRING
    }
  }
  attr {
    key: "value"
    value {
      tensor {
        dtype: DT_STRING
        tensor_shape {
        }
        string_val: "weights can not be broadcast to values."
      }
    }
  }
}
node {
  name: "weighted_loss/assert_broadcastable/AssertGuard/Assert/data_1"
  op: "Const"
  input: "^add"
  input: "^weighted_loss/assert_broadcastable/AssertGuard/switch_f"
  attr {
    key: "_output_shapes"
    value {
      list {
        shape {
        }
      }
    }
  }
  attr {
    key: "dtype"
    value {
      type: DT_STRING
    }
  }
  attr {
    key: "value"
    value {
      tensor {
        dtype: DT_STRING
        tensor_shape {
        }
        string_val: "weights.shape="
      }
    }
  }
}
node {
  name: "weighted_loss/assert_broadcastable/AssertGuard/Assert/data_2"
  op: "Const"
  input: "^add"
  input: "^weighted_loss/assert_broadcastable/AssertGuard/switch_f"
  attr {
    key: "_output_shapes"
    value {
      list {
        shape {
        }
      }
    }
  }
  attr {
    key: "dtype"
    value {
      type: DT_STRING
    }
  }
  attr {
    key: "value"
    value {
      tensor {
        dtype: DT_STRING
        tensor_shape {
        }
        string_val: "weighted_loss/assert_broadcastable/weights:0"
      }
    }
  }
}
node {
  name: "weighted_loss/assert_broadcastable/AssertGuard/Assert/data_4"
  op: "Const"
  input: "^add"
  input: "^weighted_loss/assert_broadcastable/AssertGuard/switch_f"
  attr {
    key: "_output_shapes"
    value {
      list {
        shape {
        }
      }
    }
  }
  attr {
    key: "dtype"
    value {
      type: DT_STRING
    }
  }
  attr {
    key: "value"
    value {
      tensor {
        dtype: DT_STRING
        tensor_shape {
        }
        string_val: "values.shape="
      }
    }
  }
}
node {
  name: "weighted_loss/assert_broadcastable/AssertGuard/Assert/data_5"
  op: "Const"
  input: "^add"
  input: "^weighted_loss/assert_broadcastable/AssertGuard/switch_f"
  attr {
    key: "_output_shapes"
    value {
      list {
        shape {
        }
      }
    }
  }
  attr {
    key: "dtype"
    value {
      type: DT_STRING
    }
  }
  attr {
    key: "value"
    value {
      tensor {
        dtype: DT_STRING
        tensor_shape {
        }
        string_val: "linear/head/logistic_loss:0"
      }
    }
  }
}
node {
  name: "weighted_loss/assert_broadcastable/AssertGuard/Assert/data_7"
  op: "Const"
  input: "^add"
  input: "^weighted_loss/assert_broadcastable/AssertGuard/switch_f"
  attr {
    key: "_output_shapes"
    value {
      list {
        shape {
        }
      }
    }
  }
  attr {
    key: "dtype"
    value {
      type: DT_STRING
    }
  }
  attr {
    key: "value"
    value {
      tensor {
        dtype: DT_STRING
        tensor_shape {
        }
        string_val: "is_scalar="
      }
    }
  }
}
node {
  name: "weighted_loss/assert_broadcastable/AssertGuard/Assert/Switch"
  op: "Switch"
  input: "weighted_loss/assert_broadcastable/is_valid_shape/Merge"
  input: "weighted_loss/assert_broadcastable/AssertGuard/pred_id"
  attr {
    key: "T"
    value {
      type: DT_BOOL
    }
  }
  attr {
    key: "_class"
    value {
      list {
        s: "loc:@weighted_loss/assert_broadcastable/is_valid_shape/Merge"
      }
    }
  }
  attr {
    key: "_output_shapes"
    value {
      list {
        shape {
        }
        shape {
        }
      }
    }
  }
}
node {
  name: "weighted_loss/assert_broadcastable/AssertGuard/Assert/Switch_1"
  op: "Switch"
  input: "weighted_loss/assert_broadcastable/weights/shape"
  input: "weighted_loss/assert_broadcastable/AssertGuard/pred_id"
  attr {
    key: "T"
    value {
      type: DT_INT32
    }
  }
  attr {
    key: "_class"
    value {
      list {
        s: "loc:@weighted_loss/assert_broadcastable/weights/shape"
      }
    }
  }
  attr {
    key: "_output_shapes"
    value {
      list {
        shape {
          dim {
          }
        }
        shape {
          dim {
          }
        }
      }
    }
  }
}
node {
  name: "weighted_loss/assert_broadcastable/AssertGuard/Assert/Switch_2"
  op: "Switch"
  input: "weighted_loss/assert_broadcastable/values/shape"
  input: "weighted_loss/assert_broadcastable/AssertGuard/pred_id"
  attr {
    key: "T"
    value {
      type: DT_INT32
    }
  }
  attr {
    key: "_class"
    value {
      list {
        s: "loc:@weighted_loss/assert_broadcastable/values/shape"
      }
    }
  }
  attr {
    key: "_output_shapes"
    value {
      list {
        shape {
          dim {
            size: -1
          }
        }
        shape {
          dim {
            size: -1
          }
        }
      }
    }
  }
}
node {
  name: "weighted_loss/assert_broadcastable/AssertGuard/Assert/Switch_3"
  op: "Switch"
  input: "weighted_loss/assert_broadcastable/is_scalar"
  input: "weighted_loss/assert_broadcastable/AssertGuard/pred_id"
  attr {
    key: "T"
    value {
      type: DT_BOOL
    }
  }
  attr {
    key: "_class"
    value {
      list {
        s: "loc:@weighted_loss/assert_broadcastable/is_scalar"
      }
    }
  }
  attr {
    key: "_output_shapes"
    value {
      list {
        shape {
        }
        shape {
        }
      }
    }
  }
}
node {
  name: "weighted_loss/assert_broadcastable/AssertGuard/Assert"
  op: "Assert"
  input: "weighted_loss/assert_broadcastable/AssertGuard/Assert/Switch"
  input: "weighted_loss/assert_broadcastable/AssertGuard/Assert/data_0"
  input: "weighted_loss/assert_broadcastable/AssertGuard/Assert/data_1"
  input: "weighted_loss/assert_broadcastable/AssertGuard/Assert/data_2"
  input: "weighted_loss/assert_broadcastable/AssertGuard/Assert/Switch_1"
  input: "weighted_loss/assert_broadcastable/AssertGuard/Assert/data_4"
  input: "weighted_loss/assert_broadcastable/AssertGuard/Assert/data_5"
  input: "weighted_loss/assert_broadcastable/AssertGuard/Assert/Switch_2"
  input: "weighted_loss/assert_broadcastable/AssertGuard/Assert/data_7"
  input: "weighted_loss/assert_broadcastable/AssertGuard/Assert/Switch_3"
  attr {
    key: "T"
    value {
      list {
        type: DT_STRING
        type: DT_STRING
        type: DT_STRING
        type: DT_INT32
        type: DT_STRING
        type: DT_STRING
        type: DT_INT32
        type: DT_STRING
        type: DT_BOOL
      }
    }
  }
  attr {
    key: "summarize"
    value {
      i: 3
    }
  }
}
node {
  name: "weighted_loss/assert_broadcastable/AssertGuard/control_dependency_1"
  op: "Identity"
  input: "weighted_loss/assert_broadcastable/AssertGuard/switch_f"
  input: "^weighted_loss/assert_broadcastable/AssertGuard/Assert"
  attr {
    key: "T"
    value {
      type: DT_BOOL
    }
  }
  attr {
    key: "_class"
    value {
      list {
        s: "loc:@weighted_loss/assert_broadcastable/AssertGuard/switch_f"
      }
    }
  }
  attr {
    key: "_output_shapes"
    value {
      list {
        shape {
        }
      }
    }
  }
}
node {
  name: "weighted_loss/assert_broadcastable/AssertGuard/Merge"
  op: "Merge"
  input: "weighted_loss/assert_broadcastable/AssertGuard/control_dependency_1"
  input: "weighted_loss/assert_broadcastable/AssertGuard/control_dependency"
  attr {
    key: "N"
    value {
      i: 2
    }
  }
  attr {
    key: "T"
    value {
      type: DT_BOOL
    }
  }
  attr {
    key: "_output_shapes"
    value {
      list {
        shape {
        }
        shape {
        }
      }
    }
  }
}
node {
  name: "weighted_loss/ToFloat_1/x"
  op: "Const"
  input: "^add"
  input: "^weighted_loss/assert_broadcastable/AssertGuard/Merge"
  attr {
    key: "_output_shapes"
    value {
      list {
        shape {
        }
      }
    }
  }
  attr {
    key: "dtype"
    value {
      type: DT_FLOAT
    }
  }
  attr {
    key: "value"
    value {
      tensor {
        dtype: DT_FLOAT
        tensor_shape {
        }
        float_val: 1.0
      }
    }
  }
}
node {
  name: "weighted_loss/Mul"
  op: "Mul"
  input: "linear/head/logistic_loss"
  input: "weighted_loss/ToFloat_1/x"
  attr {
    key: "T"
    value {
      type: DT_FLOAT
    }
  }
  attr {
    key: "_output_shapes"
    value {
      list {
        shape {
          unknown_rank: true
        }
      }
    }
  }
}
node {
  name: "weighted_loss/Rank"
  op: "Rank"
  input: "weighted_loss/Mul"
  attr {
    key: "T"
    value {
      type: DT_FLOAT
    }
  }
  attr {
    key: "_output_shapes"
    value {
      list {
        shape {
        }
      }
    }
  }
}
node {
  name: "weighted_loss/range/start"
  op: "Const"
  input: "^add"
  input: "^weighted_loss/assert_broadcastable/AssertGuard/Merge"
  attr {
    key: "_output_shapes"
    value {
      list {
        shape {
        }
      }
    }
  }
  attr {
    key: "dtype"
    value {
      type: DT_INT32
    }
  }
  attr {
    key: "value"
    value {
      tensor {
        dtype: DT_INT32
        tensor_shape {
        }
        int_val: 0
      }
    }
  }
}
node {
  name: "weighted_loss/range/delta"
  op: "Const"
  input: "^add"
  input: "^weighted_loss/assert_broadcastable/AssertGuard/Merge"
  attr {
    key: "_output_shapes"
    value {
      list {
        shape {
        }
      }
    }
  }
  attr {
    key: "dtype"
    value {
      type: DT_INT32
    }
  }
  attr {
    key: "value"
    value {
      tensor {
        dtype: DT_INT32
        tensor_shape {
        }
        int_val: 1
      }
    }
  }
}
node {
  name: "weighted_loss/range"
  op: "Range"
…
  attr {
    key: "N"
    value {
      i: 2
    }
  }
  attr {
    key: "T"
    value {
      type: DT_STRING
    }
  }
  attr {
    key: "Tidx"
    value {
      type: DT_INT32
    }
  }
  attr {
    key: "_output_shapes"
    value {
      list {
        shape {
          dim {
            size: -1
          }
        }
      }
    }
  }
}
node {
  name: "report_uninitialized_variables_1/IsVariableInitialized"
  op: "IsVariableInitialized"
  input: "global_step"
  attr {
    key: "_class"
    value {
      list {
        s: "loc:@global_step"
      }
    }
  }
  attr {
    key: "_output_shapes"
    value {
      list {
        shape {
        }
      }
    }
  }
  attr {
    key: "dtype"
    value {
      type: DT_INT64
    }
  }
}
node {
  name: "report_uninitialized_variables_1/IsVariableInitialized_1"
  op: "IsVariableInitialized"
  input: "linear/linear_model/x/weights/part_0"
  attr {
    key: "_class"
    value {
      list {
        s: "loc:@linear/linear_model/x/weights/part_0"
      }
    }
  }
  attr {
    key: "_output_shapes"
    value {
      list {
        shape {
        }
      }
    }
  }
  attr {
    key: "dtype"
    value {
      type: DT_FLOAT
    }
  }
}
node {
  name: "report_uninitialized_variables_1/IsVariableInitialized_2"
  op: "IsVariableInitialized"
  input: "linear/linear_model/bias_weights/part_0"
  attr {
    key: "_class"
    value {
      list {
        s: "loc:@linear/linear_model/bias_weights/part_0"
      }
    }
  }
  attr {
    key: "_output_shapes"
    value {
      list {
        shape {
        }
      }
    }
  }
  attr {
    key: "dtype"
    value {
      type: DT_FLOAT
    }
  }
}
node {
  name: "report_uninitialized_variables_1/IsVariableInitialized_3"
  op: "IsVariableInitialized"
  input: "linear/linear/linear_model/x/weights/part_0/Ftrl"
  attr {
    key: "_class"
    value {
      list {
        s: "loc:@linear/linear_model/x/weights/part_0"
      }
    }
  }
  attr {
    key: "_output_shapes"
    value {
      list {
        shape {
        }
      }
    }
  }
  attr {
    key: "dtype"
    value {
      type: DT_FLOAT
    }
  }
}
node {
  name: "report_uninitialized_variables_1/IsVariableInitialized_4"
  op: "IsVariableInitialized"
  input: "linear/linear/linear_model/x/weights/part_0/Ftrl_1"
  attr {
    key: "_class"
    value {
      list {
        s: "loc:@linear/linear_model/x/weights/part_0"
      }
    }
  }
  attr {
    key: "_output_shapes"
    value {
      list {
        shape {
        }
      }
    }
  }
  attr {
    key: "dtype"
    value {
      type: DT_FLOAT
    }
  }
}
node {
  name: "report_uninitialized_variables_1/IsVariableInitialized_5"
  op: "IsVariableInitialized"
  input: "linear/linear/linear_model/bias_weights/part_0/Ftrl"
  attr {
    key: "_class"
    value {
      list {
        s: "loc:@linear/linear_model/bias_weights/part_0"
      }
    }
  }
  attr {
    key: "_output_shapes"
    value {
      list {
        shape {
        }
      }
    }
  }
  attr {
    key: "dtype"
    value {
      type: DT_FLOAT
    }
  }
}
node {
  name: "report_uninitialized_variables_1/IsVariableInitialized_6"
  op: "IsVariableInitialized"
  input: "linear/linear/linear_model/bias_weights/part_0/Ftrl_1"
  attr {
    key: "_class"
    value {
      list {
        s: "loc:@linear/linear_model/bias_weights/part_0"
      }
    }
  }
  attr {
    key: "_output_shapes"
    value {
      list {
        shape {
        }
      }
    }
  }
  attr {
    key: "dtype"
    value {
      type: DT_FLOAT
    }
  }
}
node {
  name: "report_uninitialized_variables_1/stack"
  op: "Pack"
  input: "report_uninitialized_variables_1/IsVariableInitialized"
  input: "report_uninitialized_variables_1/IsVariableInitialized_1"
  input: "report_uninitialized_variables_1/IsVariableInitialized_2"
  input: "report_uninitialized_variables_1/IsVariableInitialized_3"
  input: "report_uninitialized_variables_1/IsVariableInitialized_4"
  input: "report_uninitialized_variables_1/IsVariableInitialized_5"
  input: "report_uninitialized_variables_1/IsVariableInitialized_6"
  device: "/device:CPU:0"
  attr {
    key: "N"
    value {
      i: 7
    }
  }
  attr {
    key: "T"
    value {
      type: DT_BOOL
    }
  }
  attr {
    key: "_output_shapes"
    value {
      list {
        shape {
          dim {
            size: 7
          }
        }
      }
    }
  }
  attr {
    key: "axis"
    value {
      i: 0
    }
  }
}
node {
  name: "report_uninitialized_variables_1/LogicalNot"
  op: "LogicalNot"
  input: "report_uninitialized_variables_1/stack"
  device: "/device:CPU:0"
  attr {
    key: "_output_shapes"
    value {
      list {
        shape {
          dim {
            size: 7
          }
        }
      }
    }
  }
}
node {
  name: "report_uninitialized_variables_1/Const"
  op: "Const"
  device: "/device:CPU:0"
  attr {
    key: "_output_shapes"
    value {
      list {
        shape {
          dim {
            size: 7
          }
        }
      }
    }
  }
  attr {
    key: "dtype"
    value {
      type: DT_STRING
    }
  }
  attr {
    key: "value"
    value {
      tensor {
        dtype: DT_STRING
        tensor_shape {
          dim {
            size: 7
          }
        }
        string_val: "global_step"
        string_val: "linear/linear_model/x/weights/part_0"
        string_val: "linear/linear_model/bias_weights/part_0"
        string_val: "linear/linear/linear_model/x/weights/part_0/Ftrl"
        string_val: "linear/linear/linear_model/x/weights/part_0/Ftrl_1"
        string_val: "linear/linear/linear_model/bias_weights/part_0/Ftrl"
        string_val: "linear/linear/linear_model/bias_weights/part_0/Ftrl_1"
      }
    }
  }
}
node {
  name: "report_uninitialized_variables_1/boolean_mask/Shape"
  op: "Const"
  device: "/device:CPU:0"
  attr {
    key: "_output_shapes"
    value {
      list {
        shape {
          dim {
            size: 1
          }
        }
      }
    }
  }
  attr {
    key: "dtype"
    value {
      type: DT_INT32
    }
  }
  attr {
    key: "value"
    value {
      tensor {
        dtype: DT_INT32
        tensor_shape {
          dim {
            size: 1
          }
        }
        int_val: 7
      }
    }
  }
}
node {
  name: "report_uninitialized_variables_1/boolean_mask/strided_slice/stack"
  op: "Const"
  device: "/device:CPU:0"
  attr {
    key: "_output_shapes"
    value {
      list {
        shape {
          dim {
            size: 1
          }
        }
      }
    }
  }
  attr {
    key: "dtype"
    value {
      type: DT_INT32
    }
  }
  attr {
    key: "value"
    value {
      tensor {
        dtype: DT_INT32
        tensor_shape {
          dim {
            size: 1
          }
        }
        int_val: 0
      }
    }
  }
}
node {
  name: "report_uninitialized_variables_1/boolean_mask/strided_slice/stack_1"
  op: "Const"
  device: "/device:CPU:0"
  attr {
    key: "_output_shapes"
    value {
      list {
        shape {
          dim {
            size: 1
          }
        }
      }
    }
  }
  attr {
    key: "dtype"
    value {
      type: DT_INT32
    }
  }
  attr {
    key: "value"
    value {
      tensor {
        dtype: DT_INT32
        tensor_shape {
          dim {
            size: 1
          }
        }
        int_val: 1
      }
    }
  }
}
node {
  name: "report_uninitialized_variables_1/boolean_mask/strided_slice/stack_2"
  op: "Const"
  device: "/device:CPU:0"
  attr {
    key: "_output_shapes"
    value {
      list {
        shape {
          dim {
            size: 1
          }
        }
      }
    }
  }
  attr {
    key: "dtype"
    value {
      type: DT_INT32
    }
  }
  attr {
    key: "value"
    value {
      tensor {
        dtype: DT_INT32
        tensor_shape {
          dim {
            size: 1
          }
        }
        int_val: 1
      }
    }
  }
}
node {
  name: "report_uninitialized_variables_1/boolean_mask/strided_slice"
  op: "StridedSlice"
  input: "report_uninitialized_variables_1/boolean_mask/Shape"
  input: "report_uninitialized_variables_1/boolean_mask/strided_slice/stack"
  input: "report_uninitialized_variables_1/boolean_mask/strided_slice/stack_1"
  input: "report_uninitialized_variables_1/boolean_mask/strided_slice/stack_2"
  device: "/device:CPU:0"
  attr {
    key: "Index"
    value {
      type: DT_INT32
    }
  }
  attr {
    key: "T"
    value {
      type: DT_INT32
    }
  }
  attr {
    key: "_output_shapes"
    value {
      list {
        shape {
          dim {
            size: 1
          }
        }
      }
    }
  }
  attr {
    key: "begin_mask"
    value {
      i: 1
    }
  }
  attr {
    key: "ellipsis_mask"
    value {
      i: 0
    }
  }
  attr {
    key: "end_mask"
    value {
      i: 0
    }
  }
  attr {
    key: "new_axis_mask"
    value {
      i: 0
    }
  }
  attr {
    key: "shrink_axis_mask"
    value {
      i: 0
    }
  }
}
node {
  name: "report_uninitialized_variables_1/boolean_mask/Prod/reduction_indices"
  op: "Const"
  device: "/device:CPU:0"
  attr {
    key: "_output_shapes"
    value {
      list {
        shape {
          dim {
            size: 1
          }
        }
      }
    }
  }
  attr {
    key: "dtype"
    value {
      type: DT_INT32
    }
  }
  attr {
    key: "value"
    value {
      tensor {
        dtype: DT_INT32
        tensor_shape {
          dim {
            size: 1
          }
        }
        int_val: 0
      }
    }
  }
}
node {
  name: "report_uninitialized_variables_1/boolean_mask/Prod"
  op: "Prod"
  input: "report_uninitialized_variables_1/boolean_mask/strided_slice"
  input: "report_uninitialized_variables_1/boolean_mask/Prod/reduction_indices"
  device: "/device:CPU:0"
  attr {
    key: "T"
    value {
      type: DT_INT32
    }
  }
  attr {
    key: "Tidx"
    value {
      type: DT_INT32
    }
  }
  attr {
    key: "_output_shapes"
    value {
      list {
        shape {
        }
      }
    }
  }
  attr {
    key: "keep_dims"
    value {
      b: false
    }
  }
}
node {
  name: "report_uninitialized_variables_1/boolean_mask/Shape_1"
  op: "Const"
  device: "/device:CPU:0"
  attr {
    key: "_output_shapes"
    value {
      list {
        shape {
          dim {
            size: 1
          }
        }
      }
    }
  }
  attr {
    key: "dtype"
    value {
      type: DT_INT32
    }
  }
  attr {
    key: "value"
    value {
      tensor {
        dtype: DT_INT32
        tensor_shape {
          dim {
            size: 1
          }
        }
        int_val: 7
      }
    }
  }
}
node {
  name: "report_uninitialized_variables_1/boolean_mask/strided_slice_1/stack"
  op: "Const"
  device: "/device:CPU:0"
  attr {
    key: "_output_shapes"
    value {
      list {
        shape {
          dim {
            size: 1
          }
        }
      }
    }
  }
  attr {
    key: "dtype"
    value {
      type: DT_INT32
    }
  }
  attr {
    key: "value"
    value {
      tensor {
        dtype: DT_INT32
        tensor_shape {
          dim {
            size: 1
          }
        }
        int_val: 1
      }
    }
  }
}
node {
  name: "report_uninitialized_variables_1/boolean_mask/strided_slice_1/stack_1"
  op: "Const"
  device: "/device:CPU:0"
  attr {
    key: "_output_shapes"
    value {
      list {
        shape {
          dim {
            size: 1
          }
        }
      }
    }
  }
  attr {
    key: "dtype"
    value {
      type: DT_INT32
    }
  }
  attr {
    key: "value"
    value {
      tensor {
        dtype: DT_INT32
        tensor_shape {
          dim {
            size: 1
          }
        }
        int_val: 0
      }
    }
  }
}
node {
  name: "report_uninitialized_variables_1/boolean_mask/strided_slice_1/stack_2"
  op: "Const"
  device: "/device:CPU:0"
  attr {
    key: "_output_shapes"
    value {
      list {
        shape {
          dim {
            size: 1
          }
        }
      }
    }
  }
  attr {
    key: "dtype"
    value {
      type: DT_INT32
    }
  }
  attr {
    key: "value"
    value {
      tensor {
        dtype: DT_INT32
        tensor_shape {
          dim {
            size: 1
          }
        }
        int_val: 1
      }
    }
  }
}
node {
  name: "report_uninitialized_variables_1/boolean_mask/strided_slice_1"
  op: "StridedSlice"
  input: "report_uninitialized_variables_1/boolean_mask/Shape_1"
  input: "report_uninitialized_variables_1/boolean_mask/strided_slice_1/stack"
  input: "report_uninitialized_variables_1/boolean_mask/strided_slice_1/stack_1"
  input: "report_uninitialized_variables_1/boolean_mask/strided_slice_1/stack_2"
  device: "/device:CPU:0"
  attr {
    key: "Index"
    value {
      type: DT_INT32
    }
  }
  attr {
    key: "T"
    value {
      type: DT_INT32
    }
  }
  attr {
    key: "_output_shapes"
    value {
      list {
        shape {
          dim {
          }
        }
      }
    }
  }
  attr {
    key: "begin_mask"
    value {
      i: 0
    }
  }
  attr {
    key: "ellipsis_mask"
    value {
      i: 0
    }
  }
  attr {
    key: "end_mask"
    value {
      i: 1
    }
  }
  attr {
    key: "new_axis_mask"
    value {
      i: 0
    }
  }
  attr {
    key: "shrink_axis_mask"
    value {
      i: 0
    }
  }
}
node {
  name: "report_uninitialized_variables_1/boolean_mask/concat/values_0"
  op: "Pack"
  input: "report_uninitialized_variables_1/boolean_mask/Prod"
  device: "/device:CPU:0"
  attr {
    key: "N"
    value {
      i: 1
    }
  }
  attr {
    key: "T"
    value {
      type: DT_INT32
    }
  }
  attr {
    key: "_output_shapes"
    value {
      list {
        shape {
          dim {
            size: 1
          }
        }
      }
    }
  }
  attr {
    key: "axis"
    value {
      i: 0
    }
  }
}
node {
  name: "report_uninitialized_variables_1/boolean_mask/concat/axis"
  op: "Const"
  device: "/device:CPU:0"
  attr {
    key: "_output_shapes"
    value {
      list {
        shape {
        }
      }
    }
  }
  attr {
    key: "dtype"
    value {
      type: DT_INT32
    }
  }
  attr {
    key: "value"
    value {
      tensor {
        dtype: DT_INT32
        tensor_shape {
        }
        int_val: 0
      }
    }
  }
}
node {
  name: "report_uninitialized_variables_1/boolean_mask/concat"
  op: "ConcatV2"
  input: "report_uninitialized_variables_1/boolean_mask/concat/values_0"
  input: "report_uninitialized_variables_1/boolean_mask/strided_slice_1"
  input: "report_uninitialized_variables_1/boolean_mask/concat/axis"
  device: "/device:CPU:0"
  attr {
    key: "N"
    value {
      i: 2
    }
  }
  attr {
    key: "T"
    value {
      type: DT_INT32
    }
  }
  attr {
    key: "Tidx"
    value {
      type: DT_INT32
    }
  }
  attr {
    key: "_output_shapes"
    value {
      list {
        shape {
          dim {
            size: 1
          }
        }
      }
    }
  }
}
node {
  name: "report_uninitialized_variables_1/boolean_mask/Reshape"
  op: "Reshape"
  input: "report_uninitialized_variables_1/Const"
  input: "report_uninitialized_variables_1/boolean_mask/concat"
  device: "/device:CPU:0"
  attr {
    key: "T"
    value {
      type: DT_STRING
    }
  }
  attr {
    key: "Tshape"
    value {
      type: DT_INT32
    }
  }
  attr {
    key: "_output_shapes"
    value {
      list {
        shape {
          dim {
            size: 7
          }
        }
      }
    }
  }
}
node {
  name: "report_uninitialized_variables_1/boolean_mask/Reshape_1/shape"
  op: "Const"
  device: "/device:CPU:0"
  attr {
    key: "_output_shapes"
    value {
      list {
        shape {
          dim {
            size: 1
          }
        }
      }
    }
  }
  attr {
    key: "dtype"
    value {
      type: DT_INT32
    }
  }
  attr {
    key: "value"
    value {
      tensor {
        dtype: DT_INT32
        tensor_shape {
          dim {
            size: 1
          }
        }
        int_val: -1
      }
    }
  }
}
node {
  name: "report_uninitialized_variables_1/boolean_mask/Reshape_1"
  op: "Reshape"
  input: "report_uninitialized_variables_1/LogicalNot"
  input: "report_uninitialized_variables_1/boolean_mask/Reshape_1/shape"
  device: "/device:CPU:0"
  attr {
    key: "T"
    value {
      type: DT_BOOL
    }
  }
  attr {
    key: "Tshape"
    value {
      type: DT_INT32
    }
  }
  attr {
    key: "_output_shapes"
    value {
      list {
        shape {
          dim {
            size: 7
          }
        }
      }
    }
  }
}
node {
  name: "report_uninitialized_variables_1/boolean_mask/Where"
  op: "Where"
  input: "report_uninitialized_variables_1/boolean_mask/Reshape_1"
  device: "/device:CPU:0"
  attr {
    key: "_output_shapes"
    value {
      list {
        shape {
          dim {
            size: -1
          }
          dim {
            size: 1
          }
        }
      }
    }
  }
}
node {
  name: "report_uninitialized_variables_1/boolean_mask/Squeeze"
  op: "Squeeze"
  input: "report_uninitialized_variables_1/boolean_mask/Where"
  device: "/device:CPU:0"
  attr {
    key: "T"
    value {
      type: DT_INT64
    }
  }
  attr {
    key: "_output_shapes"
    value {
      list {
        shape {
          dim {
            size: -1
          }
        }
      }
    }
  }
  attr {
    key: "squeeze_dims"
    value {
      list {
        i: 1
      }
    }
  }
}
node {
  name: "report_uninitialized_variables_1/boolean_mask/Gather"
  op: "Gather"
  input: "report_uninitialized_variables_1/boolean_mask/Reshape"
  input: "report_uninitialized_variables_1/boolean_mask/Squeeze"
  device: "/device:CPU:0"
  attr {
    key: "Tindices"
    value {
      type: DT_INT64
    }
  }
  attr {
    key: "Tparams"
    value {
      type: DT_STRING
    }
  }
  attr {
    key: "_output_shapes"
    value {
      list {
        shape {
          dim {
            size: -1
          }
        }
      }
    }
  }
  attr {
    key: "validate_indices"
    value {
      b: true
    }
  }
}
node {
  name: "init_2"
  op: "NoOp"
}
node {
  name: "init_all_tables"
  op: "NoOp"
}
node {
  name: "group_deps_1"
  op: "NoOp"
  input: "^init_2"
  input: "^init_all_tables"
}
node {
  name: "Merge/MergeSummary"
  op: "MergeSummary"
  input: "loss"
  input: "average_loss"
  attr {
    key: "N"
    value {
      i: 2
    }
  }
  attr {
    key: "_output_shapes"
    value {
      list {
        shape {
        }
      }
    }
  }
}
node {
  name: "save/Const"
  op: "Const"
  attr {
    key: "_output_shapes"
    value {
      list {
        shape {
        }
      }
    }
  }
  attr {
    key: "dtype"
    value {
      type: DT_STRING
    }
  }
  attr {
    key: "value"
    value {
      tensor {
        dtype: DT_STRING
        tensor_shape {
        }
        string_val: "model"
      }
    }
  }
}
node {
  name: "save/StringJoin/inputs_1"
  op: "Const"
  attr {
    key: "_output_shapes"
    value {
      list {
        shape {
        }
      }
    }
  }
  attr {
    key: "dtype"
    value {
      type: DT_STRING
    }
  }
  attr {
    key: "value"
    value {
      tensor {
        dtype: DT_STRING
        tensor_shape {
        }
        string_val: "_temp_e330702053274487bb256982ff60aa4a/part"
      }
    }
  }
}
node {
  name: "save/StringJoin"
  op: "StringJoin"
  input: "save/Const"
  input: "save/StringJoin/inputs_1"
  attr {
    key: "N"
    value {
      i: 2
    }
  }
  attr {
    key: "_output_shapes"
    value {
      list {
        shape {
        }
      }
    }
  }
  attr {
    key: "separator"
    value {
      s: ""
    }
  }
}
node {
  name: "save/num_shards"
  op: "Const"
  attr {
    key: "_output_shapes"
    value {
      list {
        shape {
        }
      }
    }
  }
  attr {
    key: "dtype"
    value {
      type: DT_INT32
    }
  }
  attr {
    key: "value"
    value {
      tensor {
        dtype: DT_INT32
        tensor_shape {
        }
        int_val: 1
      }
    }
  }
}
node {
  name: "save/ShardedFilename/shard"
  op: "Const"
  attr {
    key: "_output_shapes"
    value {
      list {
        shape {
        }
      }
    }
  }
  attr {
    key: "dtype"
    value {
      type: DT_INT32
    }
  }
  attr {
    key: "value"
    value {
      tensor {
        dtype: DT_INT32
        tensor_shape {
        }
        int_val: 0
      }
    }
  }
}
node {
  name: "save/ShardedFilename"
  op: "ShardedFilename"
  input: "save/StringJoin"
  input: "save/ShardedFilename/shard"
  input: "save/num_shards"
  attr {
    key: "_output_shapes"
    value {
      list {
        shape {
        }
      }
    }
  }
}
node {
  name: "save/SaveV2/tensor_names"
  op: "Const"
  attr {
    key: "_output_shapes"
    value {
      list {
        shape {
          dim {
            size: 7
          }
        }
      }
    }
  }
  attr {
    key: "dtype"
    value {
      type: DT_STRING
    }
  }
  attr {
    key: "value"
    value {
      tensor {
        dtype: DT_STRING
        tensor_shape {
          dim {
            size: 7
          }
        }
        string_val: "global_step"
        string_val: "linear/linear_model/bias_weights"
        string_val: "linear/linear_model/bias_weights/part_0/Ftrl"
        string_val: "linear/linear_model/bias_weights/part_0/Ftrl_1"
        string_val: "linear/linear_model/x/weights"
        string_val: "linear/linear_model/x/weights/part_0/Ftrl"
        string_val: "linear/linear_model/x/weights/part_0/Ftrl_1"
      }
    }
  }
}
node {
  name: "save/SaveV2/shape_and_slices"
  op: "Const"
  attr {
    key: "_output_shapes"
    value {
      list {
        shape {
          dim {
            size: 7
          }
        }
      }
    }
  }
  attr {
    key: "dtype"
    value {
      type: DT_STRING
    }
  }
  attr {
    key: "value"
    value {
      tensor {
        dtype: DT_STRING
        tensor_shape {
          dim {
            size: 7
          }
        }
        string_val: ""
        string_val: "1 0,1"
        string_val: "1 0,1"
        string_val: "1 0,1"
        string_val: "1920 1 0,1920:0,1"
        string_val: "1920 1 0,1920:0,1"
        string_val: "1920 1 0,1920:0,1"
      }
    }
  }
}
node {
  name: "save/SaveV2"
  op: "SaveV2"
  input: "save/ShardedFilename"
  input: "save/SaveV2/tensor_names"
  input: "save/SaveV2/shape_and_slices"
  input: "global_step"
  input: "linear/linear_model/bias_weights/part_0/read"
  input: "linear/linear/linear_model/bias_weights/part_0/Ftrl/read"
  input: "linear/linear/linear_model/bias_weights/part_0/Ftrl_1/read"
  input: "linear/linear_model/x/weights/part_0/read"
  input: "linear/linear/linear_model/x/weights/part_0/Ftrl/read"
  input: "linear/linear/linear_model/x/weights/part_0/Ftrl_1/read"
  attr {
    key: "dtypes"
    value {
      list {
        type: DT_INT64
        type: DT_FLOAT
        type: DT_FLOAT
        type: DT_FLOAT
        type: DT_FLOAT
        type: DT_FLOAT
        type: DT_FLOAT
      }
    }
  }
}
node {
  name: "save/control_dependency"
  op: "Identity"
  input: "save/ShardedFilename"
  input: "^save/SaveV2"
  attr {
    key: "T"
    value {
      type: DT_STRING
    }
  }
  attr {
    key: "_class"
    value {
      list {
        s: "loc:@save/ShardedFilename"
      }
    }
  }
  attr {
    key: "_output_shapes"
    value {
      list {
        shape {
        }
      }
    }
  }
}
node {
  name: "save/MergeV2Checkpoints/checkpoint_prefixes"
  op: "Pack"
  input: "save/ShardedFilename"
  input: "^save/control_dependency"
  attr {
    key: "N"
    value {
      i: 1
    }
  }
  attr {
    key: "T"
    value {
      type: DT_STRING
    }
  }
  attr {
    key: "_output_shapes"
    value {
      list {
        shape {
          dim {
            size: 1
          }
        }
      }
    }
  }
  attr {
    key: "axis"
    value {
      i: 0
    }
  }
}
node {
  name: "save/MergeV2Checkpoints"
  op: "MergeV2Checkpoints"
  input: "save/MergeV2Checkpoints/checkpoint_prefixes"
  input: "save/Const"
  attr {
    key: "delete_old_dirs"
    value {
      b: true
    }
  }
}
node {
  name: "save/Identity"
  op: "Identity"
  input: "save/Const"
  input: "^save/control_dependency"
  input: "^save/MergeV2Checkpoints"
  attr {
    key: "T"
    value {
      type: DT_STRING
    }
  }
  attr {
    key: "_output_shapes"
    value {
      list {
        shape {
        }
      }
    }
  }
}
node {
  name: "save/RestoreV2/tensor_names"
  op: "Const"
  attr {
    key: "_output_shapes"
    value {
      list {
        shape {
          dim {
            size: 1
          }
        }
      }
    }
  }
  attr {
    key: "dtype"
    value {
      type: DT_STRING
    }
  }
  attr {
    key: "value"
    value {
      tensor {
        dtype: DT_STRING
        tensor_shape {
          dim {
            size: 1
          }
        }
        string_val: "global_step"
      }
    }
  }
}
node {
  name: "save/RestoreV2/shape_and_slices"
  op: "Const"
  attr {
    key: "_output_shapes"
    value {
      list {
        shape {
          dim {
            size: 1
          }
        }
      }
    }
  }
  attr {
    key: "dtype"
    value {
      type: DT_STRING
    }
  }
  attr {
    key: "value"
    value {
      tensor {
        dtype: DT_STRING
        tensor_shape {
          dim {
            size: 1
          }
        }
        string_val: ""
      }
    }
  }
}
node {
  name: "save/RestoreV2"
  op: "RestoreV2"
  input: "save/Const"
  input: "save/RestoreV2/tensor_names"
  input: "save/RestoreV2/shape_and_slices"
  attr {
    key: "_output_shapes"
    value {
      list {
        shape {
          unknown_rank: true
        }
      }
    }
  }
  attr {
    key: "dtypes"
    value {
      list {
        type: DT_INT64
      }
    }
  }
}
node {
  name: "save/Assign"
  op: "Assign"
  input: "global_step"
  input: "save/RestoreV2"
  attr {
    key: "T"
    value {
      type: DT_INT64
    }
  }
  attr {
    key: "_class"
    value {
      list {
        s: "loc:@global_step"
      }
    }
  }
  attr {
    key: "_output_shapes"
    value {
      list {
        shape {
        }
      }
    }
  }
  attr {
    key: "use_locking"
    value {
      b: true
    }
  }
  attr {
    key: "validate_shape"
    value {
      b: true
    }
  }
}
node {
  name: "save/RestoreV2_1/tensor_names"
  op: "Const"
  attr {
    key: "_output_shapes"
    value {
      list {
        shape {
          dim {
            size: 1
          }
        }
      }
    }
  }
  attr {
    key: "dtype"
    value {
      type: DT_STRING
    }
  }
  attr {
    key: "value"
    value {
      tensor {
        dtype: DT_STRING
        tensor_shape {
          dim {
            size: 1
          }
        }
        string_val: "linear/linear_model/bias_weights"
      }
    }
  }
}
node {
  name: "save/RestoreV2_1/shape_and_slices"
  op: "Const"
  attr {
    key: "_output_shapes"
    value {
      list {
        shape {
          dim {
            size: 1
          }
        }
      }
    }
  }
  attr {
    key: "dtype"
    value {
      type: DT_STRING
    }
  }
  attr {
    key: "value"
    value {
      tensor {
        dtype: DT_STRING
        tensor_shape {
          dim {
            size: 1
          }
        }
        string_val: "1 0,1"
      }
    }
  }
}
node {
  name: "save/RestoreV2_1"
  op: "RestoreV2"
  input: "save/Const"
  input: "save/RestoreV2_1/tensor_names"
  input: "save/RestoreV2_1/shape_and_slices"
  attr {
    key: "_output_shapes"
    value {
      list {
        shape {
          dim {
            size: 1
          }
        }
      }
    }
  }
  attr {
    key: "dtypes"
    value {
      list {
        type: DT_FLOAT
      }
    }
  }
}
node {
  name: "save/Assign_1"
  op: "Assign"
  input: "linear/linear_model/bias_weights/part_0"
  input: "save/RestoreV2_1"
  attr {
    key: "T"
    value {
      type: DT_FLOAT
    }
  }
  attr {
    key: "_class"
    value {
      list {
        s: "loc:@linear/linear_model/bias_weights/part_0"
      }
    }
  }
  attr {
    key: "_output_shapes"
    value {
      list {
        shape {
          dim {
            size: 1
          }
        }
      }
    }
  }
  attr {
    key: "use_locking"
    value {
      b: true
    }
  }
  attr {
    key: "validate_shape"
    value {
      b: true
    }
  }
}
node {
  name: "save/RestoreV2_2/tensor_names"
  op: "Const"
  attr {
    key: "_output_shapes"
    value {
      list {
        shape {
          dim {
            size: 1
          }
        }
      }
    }
  }
  attr {
    key: "dtype"
    value {
      type: DT_STRING
    }
  }
  attr {
    key: "value"
    value {
      tensor {
        dtype: DT_STRING
        tensor_shape {
          dim {
            size: 1
          }
        }
        string_val: "linear/linear_model/bias_weights/part_0/Ftrl"
      }
    }
  }
}
node {
  name: "save/RestoreV2_2/shape_and_slices"
  op: "Const"
  attr {
    key: "_output_shapes"
    value {
      list {
        shape {
          dim {
            size: 1
          }
        }
      }
    }
  }
  attr {
    key: "dtype"
    value {
      type: DT_STRING
    }
  }
  attr {
    key: "value"
    value {
      tensor {
        dtype: DT_STRING
        tensor_shape {
          dim {
            size: 1
          }
        }
        string_val: "1 0,1"
      }
    }
  }
}
node {
  name: "save/RestoreV2_2"
  op: "RestoreV2"
  input: "save/Const"
  input: "save/RestoreV2_2/tensor_names"
  input: "save/RestoreV2_2/shape_and_slices"
  attr {
    key: "_output_shapes"
    value {
      list {
        shape {
          dim {
            size: 1
          }
        }
      }
    }
  }
  attr {
    key: "dtypes"
    value {
      list {
        type: DT_FLOAT
      }
    }
  }
}
node {
  name: "save/Assign_2"
  op: "Assign"
  input: "linear/linear/linear_model/bias_weights/part_0/Ftrl"
  input: "save/RestoreV2_2"
  attr {
    key: "T"
    value {
      type: DT_FLOAT
    }
  }
  attr {
    key: "_class"
    value {
      list {
        s: "loc:@linear/linear_model/bias_weights/part_0"
      }
    }
  }
  attr {
    key: "_output_shapes"
    value {
      list {
        shape {
          dim {
            size: 1
          }
        }
      }
    }
  }
  attr {
    key: "use_locking"
    value {
      b: true
    }
  }
  attr {
    key: "validate_shape"
    value {
      b: true
    }
  }
}
node {
  name: "save/RestoreV2_3/tensor_names"
  op: "Const"
  attr {
    key: "_output_shapes"
    value {
      list {
        shape {
          dim {
            size: 1
          }
        }
      }
    }
  }
  attr {
    key: "dtype"
    value {
      type: DT_STRING
    }
  }
  attr {
    key: "value"
    value {
      tensor {
        dtype: DT_STRING
        tensor_shape {
          dim {
            size: 1
          }
        }
        string_val: "linear/linear_model/bias_weights/part_0/Ftrl_1"
      }
    }
  }
}
node {
  name: "save/RestoreV2_3/shape_and_slices"
  op: "Const"
  attr {
    key: "_output_shapes"
    value {
      list {
        shape {
          dim {
            size: 1
          }
        }
      }
    }
  }
  attr {
    key: "dtype"
    value {
      type: DT_STRING
    }
  }
  attr {
    key: "value"
    value {
      tensor {
        dtype: DT_STRING
        tensor_shape {
          dim {
            size: 1
          }
        }
        string_val: "1 0,1"
      }
    }
  }
}
node {
  name: "save/RestoreV2_3"
  op: "RestoreV2"
  input: "save/Const"
  input: "save/RestoreV2_3/tensor_names"
  input: "save/RestoreV2_3/shape_and_slices"
  attr {
    key: "_output_shapes"
    value {
      list {
        shape {
          dim {
            size: 1
          }
        }
      }
    }
  }
  attr {
    key: "dtypes"
    value {
      list {
        type: DT_FLOAT
      }
    }
  }
}
node {
  name: "save/Assign_3"
  op: "Assign"
  input: "linear/linear/linear_model/bias_weights/part_0/Ftrl_1"
  input: "save/RestoreV2_3"
  attr {
    key: "T"
    value {
      type: DT_FLOAT
    }
  }
  attr {
    key: "_class"
    value {
      list {
        s: "loc:@linear/linear_model/bias_weights/part_0"
      }
    }
  }
  attr {
    key: "_output_shapes"
    value {
      list {
        shape {
          dim {
            size: 1
          }
        }
      }
    }
  }
  attr {
    key: "use_locking"
    value {
      b: true
    }
  }
  attr {
    key: "validate_shape"
    value {
      b: true
    }
  }
}
node {
  name: "save/RestoreV2_4/tensor_names"
  op: "Const"
  attr {
    key: "_output_shapes"
    value {
      list {
        shape {
          dim {
            size: 1
          }
        }
      }
    }
  }
  attr {
    key: "dtype"
    value {
      type: DT_STRING
    }
  }
  attr {
    key: "value"
    value {
      tensor {
        dtype: DT_STRING
        tensor_shape {
          dim {
            size: 1
          }
        }
        string_val: "linear/linear_model/x/weights"
      }
    }
  }
}
node {
  name: "save/RestoreV2_4/shape_and_slices"
  op: "Const"
  attr {
    key: "_output_shapes"
    value {
      list {
        shape {
          dim {
            size: 1
          }
        }
      }
    }
  }
  attr {
    key: "dtype"
    value {
      type: DT_STRING
    }
  }
  attr {
    key: "value"
    value {
      tensor {
        dtype: DT_STRING
        tensor_shape {
          dim {
            size: 1
          }
        }
        string_val: "1920 1 0,1920:0,1"
      }
    }
  }
}
node {
  name: "save/RestoreV2_4"
  op: "RestoreV2"
  input: "save/Const"
  input: "save/RestoreV2_4/tensor_names"
  input: "save/RestoreV2_4/shape_and_slices"
  attr {
    key: "_output_shapes"
    value {
      list {
        shape {
          dim {
            size: 1920
          }
          dim {
            size: 1
          }
        }
      }
    }
  }
  attr {
    key: "dtypes"
    value {
      list {
        type: DT_FLOAT
      }
    }
  }
}
node {
  name: "save/Assign_4"
  op: "Assign"
  input: "linear/linear_model/x/weights/part_0"
  input: "save/RestoreV2_4"
  attr {
    key: "T"
    value {
      type: DT_FLOAT
    }
  }
  attr {
    key: "_class"
    value {
      list {
        s: "loc:@linear/linear_model/x/weights/part_0"
      }
    }
  }
  attr {
    key: "_output_shapes"
    value {
      list {
        shape {
          dim {
            size: 1920
          }
          dim {
            size: 1
          }
        }
      }
    }
  }
  attr {
    key: "use_locking"
    value {
      b: true
    }
  }
  attr {
    key: "validate_shape"
    value {
      b: true
    }
  }
}
node {
  name: "save/RestoreV2_5/tensor_names"
  op: "Const"
  attr {
    key: "_output_shapes"
    value {
      list {
        shape {
          dim {
            size: 1
          }
        }
      }
    }
  }
  attr {
    key: "dtype"
    value {
      type: DT_STRING
    }
  }
  attr {
    key: "value"
    value {
      tensor {
        dtype: DT_STRING
        tensor_shape {
          dim {
            size: 1
          }
        }
        string_val: "linear/linear_model/x/weights/part_0/Ftrl"
      }
    }
  }
}
node {
  name: "save/RestoreV2_5/shape_and_slices"
  op: "Const"
  attr {
    key: "_output_shapes"
    value {
      list {
        shape {
          dim {
            size: 1
          }
        }
      }
    }
  }
  attr {
    key: "dtype"
    value {
      type: DT_STRING
    }
  }
  attr {
    key: "value"
    value {
      tensor {
        dtype: DT_STRING
        tensor_shape {
          dim {
            size: 1
          }
        }
        string_val: "1920 1 0,1920:0,1"
      }
    }
  }
}
node {
  name: "save/RestoreV2_5"
  op: "RestoreV2"
  input: "save/Const"
  input: "save/RestoreV2_5/tensor_names"
  input: "save/RestoreV2_5/shape_and_slices"
  attr {
    key: "_output_shapes"
    value {
      list {
        shape {
          dim {
            size: 1920
          }
          dim {
            size: 1
          }
        }
      }
    }
  }
  attr {
    key: "dtypes"
    value {
      list {
        type: DT_FLOAT
      }
    }
  }
}
node {
  name: "save/Assign_5"
  op: "Assign"
  input: "linear/linear/linear_model/x/weights/part_0/Ftrl"
  input: "save/RestoreV2_5"
  attr {
    key: "T"
    value {
      type: DT_FLOAT
    }
  }
  attr {
    key: "_class"
    value {
      list {
        s: "loc:@linear/linear_model/x/weights/part_0"
      }
    }
  }
  attr {
    key: "_output_shapes"
    value {
      list {
        shape {
          dim {
            size: 1920
          }
          dim {
            size: 1
          }
        }
      }
    }
  }
  attr {
    key: "use_locking"
    value {
      b: true
    }
  }
  attr {
    key: "validate_shape"
    value {
      b: true
    }
  }
}
node {
  name: "save/RestoreV2_6/tensor_names"
  op: "Const"
  attr {
    key: "_output_shapes"
    value {
      list {
        shape {
          dim {
            size: 1
          }
        }
      }
    }
  }
  attr {
    key: "dtype"
    value {
      type: DT_STRING
    }
  }
  attr {
    key: "value"
    value {
      tensor {
        dtype: DT_STRING
        tensor_shape {
          dim {
            size: 1
          }
        }
        string_val: "linear/linear_model/x/weights/part_0/Ftrl_1"
      }
    }
  }
}
node {
  name: "save/RestoreV2_6/shape_and_slices"
  op: "Const"
  attr {
    key: "_output_shapes"
    value {
      list {
        shape {
          dim {
            size: 1
          }
        }
      }
    }
  }
  attr {
    key: "dtype"
    value {
      type: DT_STRING
    }
  }
  attr {
    key: "value"
    value {
      tensor {
        dtype: DT_STRING
        tensor_shape {
          dim {
            size: 1
          }
        }
        string_val: "1920 1 0,1920:0,1"
      }
    }
  }
}
node {
  name: "save/RestoreV2_6"
  op: "RestoreV2"
  input: "save/Const"
  input: "save/RestoreV2_6/tensor_names"
  input: "save/RestoreV2_6/shape_and_slices"
  attr {
    key: "_output_shapes"
    value {
      list {
        shape {
          dim {
            size: 1920
          }
          dim {
            size: 1
          }
        }
      }
    }
  }
  attr {
    key: "dtypes"
    value {
      list {
        type: DT_FLOAT
      }
    }
  }
}
node {
  name: "save/Assign_6"
  op: "Assign"
  input: "linear/linear/linear_model/x/weights/part_0/Ftrl_1"
  input: "save/RestoreV2_6"
  attr {
    key: "T"
    value {
      type: DT_FLOAT
    }
  }
  attr {
    key: "_class"
    value {
      list {
        s: "loc:@linear/linear_model/x/weights/part_0"
      }
    }
  }
  attr {
    key: "_output_shapes"
    value {
      list {
        shape {
          dim {
            size: 1920
          }
          dim {
            size: 1
          }
        }
      }
    }
  }
  attr {
    key: "use_locking"
    value {
      b: true
    }
  }
  attr {
    key: "validate_shape"
    value {
      b: true
    }
  }
}
node {
  name: "save/restore_shard"
  op: "NoOp"
  input: "^save/Assign"
  input: "^save/Assign_1"
  input: "^save/Assign_2"
  input: "^save/Assign_3"
  input: "^save/Assign_4"
  input: "^save/Assign_5"
  input: "^save/Assign_6"
}
node {
  name: "save/restore_all"
  op: "NoOp"
  input: "^save/restore_shard"
}
library {
  function {
    signature {
      name: "tf_map_func_0f6d0f1b"
      input_arg {
        name: "arg0"
        type: DT_INT32
      }
      output_arg {
        name: "PyFunc"
        type: DT_INT64
      }
      description: "A wrapper for Defun that facilitates shape inference."
    }
    node_def {
      name: "PyFunc"
      op: "PyFunc"
      attr {
        key: "Tin"
        value {
          list {
          }
        }
      }
      attr {
        key: "Tout"
        value {
          list {
            type: DT_INT64
          }
        }
      }
      attr {
        key: "token"
        value {
          s: "pyfunc_44"
        }
      }
    }
    ret {
      key: "PyFunc"
      value: "PyFunc:output:0"
    }
  }
  function {
    signature {
      name: "tf_map_func_6c6121e5"
      input_arg {
        name: "arg0"
        type: DT_INT64
      }
      output_arg {
        name: "MapDataset"
        type: DT_VARIANT
      }
      description: "A wrapper for Defun that facilitates shape inference."
    }
    node_def {
      name: "count"
      op: "Const"
      attr {
        key: "dtype"
        value {
          type: DT_INT64
        }
      }
      attr {
        key: "value"
        value {
          tensor {
            dtype: DT_INT64
            tensor_shape {
            }
            int64_val: -1
          }
        }
      }
    }
    node_def {
      name: "TensorDataset"
      op: "TensorDataset"
      input: "arg0"
      attr {
        key: "Toutput_types"
        value {
          list {
            type: DT_INT64
          }
        }
      }
      attr {
        key: "output_shapes"
        value {
          list {
            shape {
              unknown_rank: true
            }
          }
        }
      }
    }
    node_def {
      name: "RepeatDataset"
      op: "RepeatDataset"
      input: "TensorDataset:handle:0"
      input: "count:output:0"
      attr {
        key: "output_shapes"
        value {
          list {
            shape {
              unknown_rank: true
            }
          }
        }
      }
      attr {
        key: "output_types"
        value {
          list {
            type: DT_INT64
          }
        }
      }
    }
    node_def {
      name: "MapDataset"
      op: "MapDataset"
      input: "RepeatDataset:handle:0"
      attr {
        key: "Targuments"
        value {
          list {
          }
        }
      }
      attr {
        key: "f"
        value {
          func {
            name: "tf_map_func_96de632d"
          }
        }
      }
      attr {
        key: "output_shapes"
        value {
          list {
            shape {
              unknown_rank: true
            }
            shape {
              unknown_rank: true
            }
          }
        }
      }
      attr {
        key: "output_types"
        value {
          list {
            type: DT_UINT8
            type: DT_FLOAT
          }
        }
      }
    }
    ret {
      key: "MapDataset"
      value: "MapDataset:handle:0"
    }
  }
  function {
    signature {
      name: "tf_map_func_96de632d"
      input_arg {
        name: "arg0"
        type: DT_INT64
      }
      output_arg {
        name: "PyFunc"
        type: DT_UINT8
      }
      output_arg {
        name: "PyFunc_o1"
        type: DT_FLOAT
      }
      description: "A wrapper for Defun that facilitates shape inference."
    }
    node_def {
      name: "PyFunc"
      op: "PyFunc"
      input: "arg0"
      attr {
        key: "Tin"
        value {
          list {
            type: DT_INT64
          }
        }
      }
      attr {
        key: "Tout"
        value {
          list {
            type: DT_UINT8
            type: DT_FLOAT
          }
        }
      }
      attr {
        key: "token"
        value {
          s: "pyfunc_45"
        }
      }
    }
    ret {
      key: "PyFunc"
      value: "PyFunc:output:0"
    }
    ret {
      key: "PyFunc_o1"
      value: "PyFunc:output:1"
    }
  }
  function {
    signature {
      name: "tf_map_func_f4bc042f"
      input_arg {
        name: "arg0"
        type: DT_UINT8
      }
      input_arg {
        name: "arg1"
        type: DT_FLOAT
      }
      output_arg {
        name: "Reshape"
        type: DT_FLOAT
      }
      output_arg {
        name: "arg1"
        type: DT_FLOAT
      }
      description: "A wrapper for Defun that facilitates shape inference."
    }
    node_def {
      name: "one_hot/on_value"
      op: "Const"
      attr {
        key: "dtype"
        value {
          type: DT_FLOAT
        }
      }
      attr {
        key: "value"
        value {
          tensor {
            dtype: DT_FLOAT
            tensor_shape {
            }
            float_val: 1.0
          }
        }
      }
    }
    node_def {
      name: "one_hot/off_value"
      op: "Const"
      attr {
        key: "dtype"
        value {
          type: DT_FLOAT
        }
      }
      attr {
        key: "value"
        value {
          tensor {
            dtype: DT_FLOAT
            tensor_shape {
            }
            float_val: 0.0
          }
        }
      }
    }
    node_def {
      name: "one_hot/depth"
      op: "Const"
      attr {
        key: "dtype"
        value {
          type: DT_INT32
        }
      }
      attr {
        key: "value"
        value {
          tensor {
            dtype: DT_INT32
            tensor_shape {
            }
            int_val: 32
          }
        }
      }
    }
    node_def {
      name: "one_hot"
      op: "OneHot"
      input: "arg0"
      input: "one_hot/depth:output:0"
      input: "one_hot/on_value:output:0"
      input: "one_hot/off_value:output:0"
      attr {
        key: "T"
        value {
          type: DT_FLOAT
        }
      }
      attr {
        key: "TI"
        value {
          type: DT_UINT8
        }
      }
      attr {
        key: "axis"
        value {
          i: -1
        }
      }
    }
    node_def {
      name: "Reshape/shape"
      op: "Const"
      attr {
        key: "dtype"
        value {
          type: DT_INT32
        }
      }
      attr {
        key: "value"
        value {
          tensor {
            dtype: DT_INT32
            tensor_shape {
              dim {
                size: 1
              }
            }
            int_val: 1920
          }
        }
      }
    }
    node_def {
      name: "Reshape"
      op: "Reshape"
      input: "one_hot:output:0"
      input: "Reshape/shape:output:0"
      attr {
        key: "T"
        value {
          type: DT_FLOAT
        }
      }
      attr {
        key: "Tshape"
        value {
          type: DT_INT32
        }
      }
    }
    ret {
      key: "Reshape"
      value: "Reshape:output:0"
    }
    ret {
      key: "arg1"
      value: "arg1"
    }
  }
  function {
    signature {
      name: "_make_dataset_366e0563"
      output_arg {
        name: "BatchDataset"
        type: DT_VARIANT
      }
    }
    node_def {
      name: "TensorDataset/tensors/component_0"
      op: "Const"
      attr {
        key: "dtype"
        value {
          type: DT_INT32
        }
      }
      attr {
        key: "value"
        value {
          tensor {
            dtype: DT_INT32
            tensor_shape {
            }
            int_val: 0
          }
        }
      }
    }
    node_def {
      name: "TensorDataset"
      op: "TensorDataset"
      input: "TensorDataset/tensors/component_0:output:0"
      attr {
        key: "Toutput_types"
        value {
          list {
            type: DT_INT32
          }
        }
      }
      attr {
        key: "output_shapes"
        value {
          list {
            shape {
            }
          }
        }
      }
    }
    node_def {
      name: "MapDataset"
      op: "MapDataset"
      input: "TensorDataset:handle:0"
      attr {
        key: "Targuments"
        value {
          list {
          }
        }
      }
      attr {
        key: "f"
        value {
          func {
            name: "tf_map_func_0f6d0f1b"
          }
        }
      }
      attr {
        key: "output_shapes"
        value {
          list {
            shape {
              unknown_rank: true
            }
          }
        }
      }
      attr {
        key: "output_types"
        value {
          list {
            type: DT_INT64
          }
        }
      }
    }
    node_def {
      name: "FlatMapDataset"
      op: "FlatMapDataset"
      input: "MapDataset:handle:0"
      attr {
        key: "Targuments"
        value {
          list {
          }
        }
      }
      attr {
        key: "f"
        value {
          func {
            name: "tf_map_func_6c6121e5"
          }
        }
      }
      attr {
        key: "output_shapes"
        value {
          list {
            shape {
              unknown_rank: true
            }
            shape {
              unknown_rank: true
            }
          }
        }
      }
      attr {
        key: "output_types"
        value {
          list {
            type: DT_UINT8
            type: DT_FLOAT
          }
        }
      }
    }
    node_def {
      name: "MapDataset_1"
      op: "MapDataset"
      input: "FlatMapDataset:handle:0"
      attr {
        key: "Targuments"
        value {
          list {
          }
        }
      }
      attr {
        key: "f"
        value {
          func {
            name: "tf_map_func_f4bc042f"
          }
        }
      }
      attr {
        key: "output_shapes"
        value {
          list {
            shape {
              dim {
                size: 1920
              }
            }
            shape {
              unknown_rank: true
            }
          }
        }
      }
      attr {
        key: "output_types"
        value {
          list {
            type: DT_FLOAT
            type: DT_FLOAT
          }
        }
      }
    }
    node_def {
      name: "BatchDataset/batch_size"
      op: "Const"
      attr {
        key: "dtype"
        value {
          type: DT_INT64
        }
      }
      attr {
        key: "value"
        value {
          tensor {
            dtype: DT_INT64
            tensor_shape {
            }
            int64_val: 100
          }
        }
      }
    }
    node_def {
      name: "BatchDataset"
      op: "BatchDataset"
      input: "MapDataset_1:handle:0"
      input: "BatchDataset/batch_size:output:0"
      attr {
        key: "output_shapes"
        value {
          list {
            shape {
              dim {
                size: -1
              }
              dim {
                size: 1920
              }
            }
            shape {
              unknown_rank: true
            }
          }
        }
      }
      attr {
        key: "output_types"
        value {
          list {
            type: DT_FLOAT
            type: DT_FLOAT
          }
        }
      }
    }
    ret {
      key: "BatchDataset"
      value: "BatchDataset:handle:0"
    }
  }
}
versions {
  producer: 24
  min_consumer: 12
}
